code/conditional_q.pt (torch, 167667 bytes, 19 tensors)

gen.conv1.conv.weight f4 [64, 2, 3, 3]
000000 bf aa 01 bd 82 c4 bf bd f0 32 6b be 29 04 5e be
       -0.031656977 -0.09363653 -0.2296865 -0.21681274
000010 8d 8b bb bd 48 7a b9 bd c6 d2 3d 3e df bd dd bd
       -0.091574766 -0.090565264 0.18537435 -0.10827231
000020 ac ad 03 be 37 29 f8 bd 21 7a f0 bb 38 bd 5c 3e
       -0.1285922 -0.12117236 -0.0073387777 0.21556556
000030 9f fa 71 3d aa a2 d8 3d a8 80 3f be ec d4 63 be
       0.0590769 0.10577901 -0.18701422 -0.22249192
000040 a8 b8 3a 3e 66 54 10 be 2e 68 92 3d aa a8 07 be
       0.18234503 -0.14094695 0.07148777 -0.13247934
000050 0f 0c 54 bd 95 3b 47 bd 74 12 a4 3d 5b 5a 1a 3e
       -0.051769312 -0.048640806 0.08011332 0.1507353
000060 9f 30 1d be 73 0c b5 3d cf f9 0c be 9b 34 8a 3d
       -0.15350579 0.08840265 -0.1376717 0.06748315
000070 e4 06 cf bd d5 9f 1b be 5a 1e 10 3e 0d d3 16 3e
       -0.10108736 -0.1519769 0.14074078 0.14728947
000080 e3 0a d1 3d 62 e2 be 3d 75 7b 38 3d 31 dc a0 bc
       0.102071546 0.09320523 0.045039613 -0.019636245
000090 28 ed 48 3e 39 db 23 3e 6d ee 3b 3e c6 44 d4 3d
       0.19621718 0.16001596 0.18352671 0.1036468
0000a0 19 e8 22 bc 85 97 b8 3d df 29 09 be 8b b9 52 be
       -0.009943032 0.09013275 -0.13394879 -0.20578592
0000b0 91 37 e5 3d c9 88 86 3d c8 8a 3e be 89 a4 c2 3d
       0.11192239 0.065690584 -0.18607628 0.09504039
0000c0 3b ca 54 3e 1b 0d 44 3e 8e 0c 4c 3e fd 98 30 3d
       0.2078027 0.19145624 0.19926664 0.04311465
0000d0 aa 2a b5 3c 10 33 ee 3d ec fb 19 3e 52 af 2f 3d
       0.02211507 0.11630833 0.15037507 0.042891808
0000e0 c7 d3 9f 3d 2f 88 69 be 37 1a 5b 3d f5 83 0f be
       0.07804065 -0.22805856 0.053491797 -0.14015181
0000f0 35 90 3f 3e b2 4a 0f 3c 6d 96 5a be 6f 18 01 be
       0.18707354 0.008745836 -0.21346445 -0.12606977
000100 c5 c2 07 3c ec c9 38 be 0e 04 11 3e f4 b5 e9 3c
       0.008286183 -0.18045777 0.14161703 0.028529145
000110 b3 d0 84 bd f6 5e 8d bc 67 5e 61 3e 6f 83 27 3d
       -0.06485119 -0.017257195 0.22008668 0.04089683
000120 b5 db 44 3e a1 c6 06 be 27 25 5b 3e eb 9c bb bd
       0.19224437 -0.13161708 0.21400891 -0.09160789
000130 88 53 f6 bd 55 fb 01 3e dc 6f 11 be 4d d9 d6 bd
       -0.12027651 0.12693532 -0.14202827 -0.104906656
000140 b1 b1 02 be db c9 1c 3c 14 45 2f 3e cc 88 62 3e
       -0.12763096 0.0095696105 0.17116195 0.22122496
000150 6c a1 f9 3d 6c 2d 68 3d 8d 6f c4 3b e5 d2 65 3e
       0.12188992 0.056683943 0.005994743 0.22443731
000160 57 f3 6f be 6f ec dc bd ca a6 bb 3d 07 6e 99 3d
       -0.2343267 -0.10787284 0.09162672 0.07491689
000170 db b5 cf bd 4b f5 3c 3c 82 83 21 3d 5d 0f 38 be
       -0.10142108 0.011533092 0.039432056 -0.1797461
000180 91 4b 40 3e 36 3f 57 bd 3e f6 3f 3e 87 83 cd 3d
       0.18778826 -0.052550517 0.18746278 0.100348525
000190 21 ef ea bd 9a a6 45 be 37 77 19 3e 23 4c 00 3e
       -0.114713915 -0.19301835 0.14986883 0.12529044
0001a0 cd 93 20 3e 67 7e 23 3e b8 7f 60 be f4 6c 01 be
       0.15681382 0.15966187 -0.21923721 -0.12639219
0001b0 d2 73 47 be 8d 2e 49 be c3 2a 11 bd 99 63 e5 bd
       -0.19477776 -0.19646664 -0.03544117 -0.11200637
0001c0 06 3a 09 be 95 3e 09 3e 7d a3 26 3d 5a 34 9f bd
       -0.1340104 0.1340278 0.04068326 -0.07773657
0001d0 43 e9 3a be 5b bc 1c 3e 2a 59 4e 3e 17 b4 29 3e
       -0.18253045 0.15306227 0.20151201 0.16572605
0001e0 7a 99 50 3e 0e b4 fe bd 23 57 f4 3b 58 6d 2a bd
       0.20371047 -0.124366865 0.0074566766 -0.041608185
0001f0 66 a3 e5 bd 32 4e 04 be ef c6 32 be e9 4d 71 be
       -0.112128064 -0.12920454 -0.174587 -0.23564877
000200 48 f1 53 3e ab 01 21 3e f6 0f 5b 3d 83 72 03 be
       0.2069751 0.15723293 0.05348202 -0.12836652
000210 52 b4 81 3c d8 df 5b 3e 00 07 40 3e b7 c5 95 3d
       0.015833054 0.21472108 0.1875267 0.07313102
000220 99 d5 c6 bd 33 03 9b 3d f0 56 c6 3d a0 d1 c1 3d
       -0.09708709 0.075689696 0.09684551 0.09463811
000230 71 86 2c be a7 31 01 3d e0 81 66 3e b9 fa 6a 3d
       -0.1684816 0.031541493 0.22510481 0.057368014
000240 10 70 0c 3e 22 52 b0 3d c1 15 dd 3d ac 93 af 3d
       0.13714623 0.086094156 0.10795165 0.08573088
000250 23 98 45 3e e1 9d c3 3d 04 dc 13 3c 49 dd 57 3e
       0.19296317 0.095515974 0.009024624 0.21080507
000260 97 a7 6c be 40 22 3c bd 47 6e 98 3c 7b a7 11 bd
       -0.23110805 -0.0459311 0.018607272 -0.035560112
000270 d7 f5 5d 3e d8 5b 0c be 8d 85 c0 bd e8 71 52 be
       0.21675812 -0.1370691 -0.09400473 -0.20551264
000280 08 60 4f 3e db 60 b3 bd ec 08 a5 bc e8 20 2c 3e
       0.20251477 -0.08758708 -0.020145856 0.16809428
000290 f6 fa b3 3d 1a 7b d3 bc c6 85 2c bd 3e af 25 3e
       0.087881014 -0.025815535 -0.042119764 0.16180131
0002a0 f6 84 5c bd 96 26 22 3e 2e 57 69 be 24 91 62 bc
       -0.05383774 0.15835032 -0.22787163 -0.0138285495
0002b0 95 3b 3d be 01 c0 82 bd 4b b2 bc 3c 90 80 60 3e
       -0.1847976 -0.06384278 0.023034235 0.21924043
0002c0 e1 87 6e 3e b2 74 40 3d 66 f8 98 bd 07 68 62 3e
       0.23294021 0.04698629 -0.07469253 0.22109996
0002d0 9d 2b aa bd 0c 9f 95 bd a3 46 42 3e 76 57 5c be
       -0.083091 -0.073057264 0.18972258 -0.21517739
0002e0 0e b3 b2 bd 70 ae e0 bd 9a aa 83 bd c6 0b 63 be
       -0.08725558 -0.10970771 -0.06429024 -0.2217246
0002f0 c7 56 97 3d 5b 40 2f be ae 31 12 be e7 0b fa bc
       0.07389598 -0.17114393 -0.14276764 -0.030523254
000300 ee 11 a0 bd 81 0a 0c be 52 c5 e2 3d 9c 1f dc 3d
       -0.0781592 -0.13675882 0.11072792 0.107482165
000310 df ea b9 3d 5b 10 e1 bc 62 93 05 be 6b 44 80 bd
       0.09078001 -0.02747362 -0.13044503 -0.0626305
000320 61 e0 da bc b3 13 4c bd 45 59 4f be ed 57 46 3c
       -0.02671832 -0.049823474 -0.20248897 0.012105924
000330 8f a0 09 be 06 94 1b bb 9a 94 da bd aa 71 42 be
       -0.13440154 -0.0023739352 -0.10672875 -0.18988672
000340 1c b5 3d be 37 80 9d 3d 5c ea d0 bd 17 19 06 be
       -0.18526119 0.07690471 -0.102009505 -0.13095509
000350 cc f5 60 3e d2 37 d9 3c d1 98 6a 3c 5a 3e 05 be
       0.21968764 0.026515875 0.014318661 -0.13012066
000360 9d f4 57 3d 26 93 dc 3d b5 5b 3b be 59 39 d0 bd
       0.052723516 0.10770254 -0.18296702 -0.10167188
000370 77 e9 0f be 7a c0 6a be fd 00 5c 3e 8c 7f 16 3e
       -0.14053904 -0.22924986 0.21484752 0.14697093
000380 eb 6f 37 3e 01 93 6d 3e ea eb d3 bd e6 09 99 bc
       0.17913787 0.23200609 -0.103477314 -0.018681478
000390 97 ff 99 bd 77 f6 e2 3d ed 29 43 3e 6e 9e 9d bd
       -0.07519453 0.11082166 0.19058962 -0.07696234
0003a0 ee 2e 13 be 62 5f 3b bd 26 10 71 be a4 ba 05 be
       -0.14373371 -0.04574526 -0.23541316 -0.13059479
0003b0 dd ab 01 3e a3 7a 22 be 6f 8b 1a be b6 aa 61 3d
       0.12663217 -0.15867095 -0.15092252 0.055094443
0003c0 b7 e8 9a 3d 2f fd 24 be b7 c6 5c 3e d2 fa 06 3e
       0.07563918 -0.16112207 0.21560179 0.13181618
0003d0 ec 17 5d bd 33 4f 37 be 0e 08 63 3e a0 f6 43 3e
       -0.05397789 -0.17901306 0.22171041 0.19137049
0003e0 4e 79 0a be aa d2 4c 3e 1c 50 d0 3c f8 ce 95 3d
       -0.13522837 0.20002237 0.025428824 0.07314867
0003f0 ed bf c5 3d 56 4a 99 3d 71 69 f7 bc d1 5e 7d 3d
       0.096557476 0.074848816 -0.030201646 0.061858002

gen.conv1.conv.bias f4 [64]
000000 70 ee 33 be db bb 2e 3e 1a 47 19 be 87 c6 01 be
       -0.17571425 0.17063849 -0.1496853 -0.12673388
000010 f3 03 27 be 54 c7 fa 3d d7 3c 45 be 9f b1 0d 3e
       -0.163101 0.1224505 -0.1926149 0.13837288
000020 ae cc 28 bd 16 52 6a be e8 0a ef ba 1f ae dc bc
       -0.041210823 -0.22882876 -0.0018237503 -0.026938496
000030 c2 47 55 be 6d 55 3b 3d f6 b4 57 be f3 a0 b2 3c
       -0.20828155 0.045735765 -0.21065125 0.021805262
000040 62 b5 25 3e 28 56 95 bd a0 dd 27 3e 50 55 75 bd
       0.16182473 -0.072918236 0.16393137 -0.059895813
000050 92 0b fe 3d f2 da 8e bd 60 22 15 3d 54 41 54 3e
       0.124045506 -0.06975354 0.036409736 0.20728046
000060 2d 90 d8 3c 7c 83 2e be 39 57 1f bd 3e 94 ca bd
       0.026435936 -0.17042345 -0.03890154 -0.09891556
000070 7c fd 28 3e 81 11 06 be ba a0 f7 bd 99 d4 09 3e
       0.16502947 -0.13092615 -0.12091203 0.13460006
000080 9a 60 5b 3e e4 53 1e 3e f9 90 8b bd d4 0e 0f 3d
       0.2142357 0.15461689 -0.06814761 0.03492625
000090 e3 58 48 3e 99 db 82 bd 2c 35 3f 3e 5a af 2f 3e
       0.19565158 -0.06389541 0.18672627 0.17156735
0000a0 2c d1 46 3e 60 8a 05 bc 54 ab 5c 3e 2c fd 18 be
       0.1941573 -0.008150667 0.21549731 -0.14940327
0000b0 f8 6e 4b 3e d3 34 83 3d dd d6 f6 3d db 2d 2d bd
       0.1986655 0.0640656 0.12052701 -0.04228006
0000c0 71 62 54 3e 54 23 6d 3e 16 fe d7 3d dc 94 1f bd
       0.20740677 0.23158008 0.1054651 -0.038960323
0000d0 f6 d7 43 3e 86 2f 32 be 3e d5 ee bd 6f 2a 38 bd
       0.19125351 -0.17400941 -0.116617665 -0.044962343
0000e0 14 d0 25 3e 9f 57 b5 3c 80 f2 0f 3e d3 c0 75 3d
       0.16192657 0.022136508 0.1405735 0.059998345
0000f0 b2 b8 16 be f4 fa 1b 3e 18 d6 3c 3e cc a7 19 be
       -0.14718893 0.1523245 0.18441045 -0.15005416

gen.conv1.norm.weight f4 [64]
000000 00 00 80 3f 00 00 80 3f 00 00 80 3f 00 00 80 3f
       1.0 1.0 1.0 1.0
000010 00 00 80 3f 00 00 80 3f 00 00 80 3f 00 00 80 3f
       1.0 1.0 1.0 1.0
000020 00 00 80 3f 00 00 80 3f 00 00 80 3f 00 00 80 3f
       1.0 1.0 1.0 1.0
000030 00 00 80 3f 00 00 80 3f 00 00 80 3f 00 00 80 3f
       1.0 1.0 1.0 1.0
000040 00 00 80 3f 00 00 80 3f 00 00 80 3f 00 00 80 3f
       1.0 1.0 1.0 1.0
000050 00 00 80 3f 00 00 80 3f 00 00 80 3f 00 00 80 3f
       1.0 1.0 1.0 1.0
000060 00 00 80 3f 00 00 80 3f 00 00 80 3f 00 00 80 3f
       1.0 1.0 1.0 1.0
000070 00 00 80 3f 00 00 80 3f 00 00 80 3f 00 00 80 3f
       1.0 1.0 1.0 1.0
000080 00 00 80 3f 00 00 80 3f 00 00 80 3f 00 00 80 3f
       1.0 1.0 1.0 1.0
000090 00 00 80 3f 00 00 80 3f 00 00 80 3f 00 00 80 3f
       1.0 1.0 1.0 1.0
0000a0 00 00 80 3f 00 00 80 3f 00 00 80 3f 00 00 80 3f
       1.0 1.0 1.0 1.0
0000b0 00 00 80 3f 00 00 80 3f 00 00 80 3f 00 00 80 3f
       1.0 1.0 1.0 1.0
0000c0 00 00 80 3f 00 00 80 3f 00 00 80 3f 00 00 80 3f
       1.0 1.0 1.0 1.0
0000d0 00 00 80 3f 00 00 80 3f 00 00 80 3f 00 00 80 3f
       1.0 1.0 1.0 1.0
0000e0 00 00 80 3f 00 00 80 3f 00 00 80 3f 00 00 80 3f
       1.0 1.0 1.0 1.0
0000f0 00 00 80 3f 00 00 80 3f 00 00 80 3f 00 00 80 3f
       1.0 1.0 1.0 1.0

gen.conv1.norm.bias f4 [64]
000000 00 00 00 00 00 00 00 00 00 00 00 00 00 00 00 00
       0.0 0.0 0.0 0.0
000010 00 00 00 00 00 00 00 00 00 00 00 00 00 00 00 00
       0.0 0.0 0.0 0.0
000020 00 00 00 00 00 00 00 00 00 00 00 00 00 00 00 00
       0.0 0.0 0.0 0.0
000030 00 00 00 00 00 00 00 00 00 00 00 00 00 00 00 00
       0.0 0.0 0.0 0.0
000040 00 00 00 00 00 00 00 00 00 00 00 00 00 00 00 00
       0.0 0.0 0.0 0.0
000050 00 00 00 00 00 00 00 00 00 00 00 00 00 00 00 00
       0.0 0.0 0.0 0.0
000060 00 00 00 00 00 00 00 00 00 00 00 00 00 00 00 00
       0.0 0.0 0.0 0.0
000070 00 00 00 00 00 00 00 00 00 00 00 00 00 00 00 00
       0.0 0.0 0.0 0.0
000080 00 00 00 00 00 00 00 00 00 00 00 00 00 00 00 00
       0.0 0.0 0.0 0.0
000090 00 00 00 00 00 00 00 00 00 00 00 00 00 00 00 00
       0.0 0.0 0.0 0.0
0000a0 00 00 00 00 00 00 00 00 00 00 00 00 00 00 00 00
       0.0 0.0 0.0 0.0
0000b0 00 00 00 00 00 00 00 00 00 00 00 00 00 00 00 00
       0.0 0.0 0.0 0.0
0000c0 00 00 00 00 00 00 00 00 00 00 00 00 00 00 00 00
       0.0 0.0 0.0 0.0
0000d0 00 00 00 00 00 00 00 00 00 00 00 00 00 00 00 00
       0.0 0.0 0.0 0.0
0000e0 00 00 00 00 00 00 00 00 00 00 00 00 00 00 00 00
       0.0 0.0 0.0 0.0
0000f0 00 00 00 00 00 00 00 00 00 00 00 00 00 00 00 00
       0.0 0.0 0.0 0.0

gen.conv1.norm.running_mean f4 [64]
000000 00 00 00 00 00 00 00 00 00 00 00 00 00 00 00 00
       0.0 0.0 0.0 0.0
000010 00 00 00 00 00 00 00 00 00 00 00 00 00 00 00 00
       0.0 0.0 0.0 0.0
000020 00 00 00 00 00 00 00 00 00 00 00 00 00 00 00 00
       0.0 0.0 0.0 0.0
000030 00 00 00 00 00 00 00 00 00 00 00 00 00 00 00 00
       0.0 0.0 0.0 0.0
000040 00 00 00 00 00 00 00 00 00 00 00 00 00 00 00 00
       0.0 0.0 0.0 0.0
000050 00 00 00 00 00 00 00 00 00 00 00 00 00 00 00 00
       0.0 0.0 0.0 0.0
000060 00 00 00 00 00 00 00 00 00 00 00 00 00 00 00 00
       0.0 0.0 0.0 0.0
000070 00 00 00 00 00 00 00 00 00 00 00 00 00 00 00 00
       0.0 0.0 0.0 0.0
000080 00 00 00 00 00 00 00 00 00 00 00 00 00 00 00 00
       0.0 0.0 0.0 0.0
000090 00 00 00 00 00 00 00 00 00 00 00 00 00 00 00 00
       0.0 0.0 0.0 0.0
0000a0 00 00 00 00 00 00 00 00 00 00 00 00 00 00 00 00
       0.0 0.0 0.0 0.0
0000b0 00 00 00 00 00 00 00 00 00 00 00 00 00 00 00 00
       0.0 0.0 0.0 0.0
0000c0 00 00 00 00 00 00 00 00 00 00 00 00 00 00 00 00
       0.0 0.0 0.0 0.0
0000d0 00 00 00 00 00 00 00 00 00 00 00 00 00 00 00 00
       0.0 0.0 0.0 0.0
0000e0 00 00 00 00 00 00 00 00 00 00 00 00 00 00 00 00
       0.0 0.0 0.0 0.0
0000f0 00 00 00 00 00 00 00 00 00 00 00 00 00 00 00 00
       0.0 0.0 0.0 0.0

gen.conv1.norm.running_var f4 [64]
000000 00 00 80 3f 00 00 80 3f 00 00 80 3f 00 00 80 3f
       1.0 1.0 1.0 1.0
000010 00 00 80 3f 00 00 80 3f 00 00 80 3f 00 00 80 3f
       1.0 1.0 1.0 1.0
000020 00 00 80 3f 00 00 80 3f 00 00 80 3f 00 00 80 3f
       1.0 1.0 1.0 1.0
000030 00 00 80 3f 00 00 80 3f 00 00 80 3f 00 00 80 3f
       1.0 1.0 1.0 1.0
000040 00 00 80 3f 00 00 80 3f 00 00 80 3f 00 00 80 3f
       1.0 1.0 1.0 1.0
000050 00 00 80 3f 00 00 80 3f 00 00 80 3f 00 00 80 3f
       1.0 1.0 1.0 1.0
000060 00 00 80 3f 00 00 80 3f 00 00 80 3f 00 00 80 3f
       1.0 1.0 1.0 1.0
000070 00 00 80 3f 00 00 80 3f 00 00 80 3f 00 00 80 3f
       1.0 1.0 1.0 1.0
000080 00 00 80 3f 00 00 80 3f 00 00 80 3f 00 00 80 3f
       1.0 1.0 1.0 1.0
000090 00 00 80 3f 00 00 80 3f 00 00 80 3f 00 00 80 3f
       1.0 1.0 1.0 1.0
0000a0 00 00 80 3f 00 00 80 3f 00 00 80 3f 00 00 80 3f
       1.0 1.0 1.0 1.0
0000b0 00 00 80 3f 00 00 80 3f 00 00 80 3f 00 00 80 3f
       1.0 1.0 1.0 1.0
0000c0 00 00 80 3f 00 00 80 3f 00 00 80 3f 00 00 80 3f
       1.0 1.0 1.0 1.0
0000d0 00 00 80 3f 00 00 80 3f 00 00 80 3f 00 00 80 3f
       1.0 1.0 1.0 1.0
0000e0 00 00 80 3f 00 00 80 3f 00 00 80 3f 00 00 80 3f
       1.0 1.0 1.0 1.0
0000f0 00 00 80 3f 00 00 80 3f 00 00 80 3f 00 00 80 3f
       1.0 1.0 1.0 1.0

gen.conv2.conv.weight f4 [32, 64, 3, 3]
000000 8b fd fb 3b b2 cc 1a bd f0 b1 0d 3c 66 21 9c bc
       0.007690137 -0.03779287 0.008648381 -0.019058894
000010 0b b1 b1 3c 22 f8 0e bd f8 46 92 3c d6 32 83 3b
       0.021690866 -0.034904607 0.017856106 0.004003863
000020 6a 1e 1a bd 2b 7f 06 3b f6 fa 78 3c a0 56 5d bc
       -0.03762666 0.0020522575 0.0151965525 -0.013509423
000030 06 fd 35 bc 60 92 d6 3c 73 53 22 bd ab 2d 25 3a
       -0.011107689 0.026192844 -0.039630365 0.00063010555
000040 40 b8 55 3b d6 36 85 3c 48 e1 23 bd 80 38 86 bb
       0.0032611042 0.0162615 -0.040009767 -0.004096091
000050 a0 9e 2a 3c e0 3f bc 3b bb 07 a3 3c 23 c0 ab bc
       0.010413796 0.005744919 0.019901147 -0.020965641
000060 2b 0b b5 bb 93 b4 c7 3c 70 11 a5 bc d3 88 dc 3c
       -0.005525013 0.024378097 -0.020149916 0.026920712
000070 6b 67 72 3c 8b 12 00 bd 53 82 15 3d 2b 6d a2 3b
       0.014795165 -0.031267684 0.03650124 0.0049568615
000080 66 68 a2 3c 43 40 a5 3c 2f 02 0b 3d fe 0e ef 3c
       0.019825172 0.020172244 0.03393763 0.029181954
000090 7b 27 80 bc cb c3 90 bc 08 e3 cc bc 66 27 f3 3c
       -0.015643826 -0.017671486 -0.0250106 0.029681873
0000a0 30 53 23 3c 2b 2a 9d bb c0 9f 9a bc ab d9 07 bb
       0.009968564 -0.0047962866 -0.018875003 -0.0020729105
0000b0 d8 73 ac 3c 30 e8 22 3d 2b f6 84 bc eb 1f b7 bc
       0.021051332 0.039772213 -0.016230663 -0.022354087
0000c0 a0 c1 c1 3c df 31 26 3d d6 38 fe 3b eb 0f 0f 3d
       0.023651898 0.040574905 0.00775824 0.03492729
0000d0 eb df 23 bd 03 a9 d1 3c 16 a3 52 bb 60 34 ac 3c
       -0.040008467 0.025593286 -0.0032140664 0.021021068
0000e0 bb 07 03 3d ab 4b 43 bc b7 69 29 bd ba 4b 05 3d
       0.031989794 -0.011919896 -0.041360583 0.03254292
0000f0 f6 9b cb 3c 48 b0 25 bd 20 f0 5d bc 18 5c b3 3c
       0.024854641 -0.040451318 -0.01354602 0.0218945
000100 d6 92 e1 bb 4b 4d 75 bc e6 fa b8 3c 60 28 0a bd
       -0.0068839593 -0.014972041 0.022580575 -0.03372991
000110 ca 0d 1a 3d 56 06 73 3b 66 28 74 3c 98 e3 f4 3c
       0.037610807 0.0037082634 0.01490221 0.029893681
000120 a0 94 9a 3b ab 62 79 3c 5b de ca 3c 4b c5 d1 bc
       0.0047174245 0.015221278 0.02476423 -0.025606772
000130 03 34 a3 3c 9a 18 25 bd c8 b5 96 bc 62 30 1e 3d
       0.019922262 -0.040306665 -0.018397227 0.03862036
000140 78 79 17 3d 00 b0 83 b9 c6 d0 e9 3c 20 ac d8 3b
       0.036981076 -0.00025117397 0.028541934 0.006612316
000150 b4 79 11 3d d0 e1 7a bc cb 0e dc 3b f0 79 28 3d
       0.035516456 -0.015312627 0.0067156306 0.041131914
000160 56 84 4e 3b f8 f8 d3 bc 94 ce 29 bd 76 f5 08 3c
       0.0031511984 -0.025875553 -0.041456774 0.008359304
000170 26 34 27 3d 7b 52 29 3c 53 f8 21 3d db f6 88 3c
       0.040821217 0.010334606 0.03954346 0.016719272
000180 56 b9 ea 3a 38 28 e8 3c 9f b9 04 bd ab b3 19 bb
       0.0017908018 0.02833949 -0.032403585 -0.0023453038
000190 c0 4c 28 3b db 2f 83 3c 06 b2 24 bd 3e 1c d9 3c
       0.0025680512 0.01601403 -0.04020884 0.026502725
0001a0 db 3a 78 bc 08 ca fb 3c cb 3b cc bc 7e 45 a0 bc
       -0.015150751 0.030735984 -0.024930855 -0.019564386
0001b0 ae 46 b1 bc 56 a6 63 bb 43 b0 da 3c 56 61 ae bc
       -0.021640148 -0.0034736595 0.026695376 -0.021286648
0001c0 d2 fc 10 3d 5b be 0a 3d 5e 76 18 3d ce f8 e0 bc
       0.03539736 0.033872943 0.03722226 -0.02746239
0001d0 dc 05 09 bd 28 10 f1 3c f4 9b 23 bd b6 6a 99 bc
       -0.033452854 0.02942665 -0.03994365 -0.018727642
0001e0 3b 4b 4d 3c 64 9e 21 3d 78 1e 94 3c c2 72 11 3d
       0.012530143 0.039457694 0.018080935 0.035509832
0001f0 74 ea 12 bd 16 b1 2d bb fb 89 be bc 66 3c ca bc
       -0.035868123 -0.0026503257 -0.023259154 -0.024687003
000200 00 a0 dd 3a 48 13 99 3c c8 5c 0c 3d d8 af ae bc
       0.0016908646 0.018685952 0.03426817 -0.021324083
000210 38 f2 f2 bc 5f bb 0f 3d 80 ed a2 3c b6 69 b0 3c
       -0.029656515 0.0350908 0.01988864 0.021534782
000220 4f 33 17 bd 56 ed 90 3a d0 6f 1a 3c 0b 31 c4 bb
       -0.036914166 0.001105706 0.009426072 -0.0059872917
000230 00 ad e5 bc 00 bf 0c 3c 16 d3 c5 bc db 6b cd 3c
       -0.028036594 0.00859046 -0.024148505 0.025075844
000240 5b 60 04 bc fe a8 93 bc 3e e4 f0 bc db c4 22 3c
       -0.008079614 -0.018024918 -0.02940571 0.009934629
000250 2e 4c bb 3c 04 64 1d bd 70 d7 6e bc bc 81 0f bd
       0.022863474 -0.03842546 -0.0145777315 -0.035035834
000260 7e 96 eb 3c da 1b 24 bd de 41 f3 bc 33 c6 93 bc
       0.028758284 -0.040065624 -0.029694494 -0.018038845
000270 58 ab b1 3c e0 81 e2 bc 36 e9 b0 3c ba 0f 11 3d
       0.021688148 -0.02764982 0.021595579 0.03541539
000280 6b 37 06 bb 06 77 d4 bc 20 c6 8a 3b 9e 53 14 3d
       -0.002047981 -0.025935661 0.004235044 0.036212556
000290 b2 35 05 3d 30 6a 5f bc 56 4b 78 ba 3b bf 93 3c
       0.03252191 -0.013636157 -0.0009471675 0.018035522
0002a0 7a ee 1d 3d c8 43 0b bd 33 01 23 bd a6 11 17 3d
       0.038557507 -0.034000188 -0.039796066 0.036882065
0002b0 58 90 8f 3c b0 34 e6 3c c3 b6 89 3c ae 2c b9 bc
       0.017524883 0.028101295 0.01681078 -0.022604313
0002c0 4b ac e5 bb c0 fc 4a 3c a6 c0 c7 3c bb d0 5c 3c
       -0.0070090643 0.012389362 0.024383854 0.0134775
0002d0 77 42 0d 3d f0 97 d9 3c 0e 8b 98 3c 2b 79 f3 bb
       0.034487214 0.026561707 0.018620994 -0.007430216
0002e0 2b 5d 0a bd 40 c2 47 bb ac 11 1c 3d 02 06 11 3d
       -0.03378026 -0.0030480772 0.03810279 0.03540612
0002f0 f8 22 e0 bc 56 cc b9 3c 5e 93 c0 bc fb 2c 4e bc
       -0.027360424 0.022680443 -0.02350777 -0.012583966
000300 77 f3 05 bd 6b 39 b5 3b 30 1b 89 bc 43 8d b0 bc
       -0.03270289 0.0055305264 -0.016736597 -0.021551734
000310 20 fa a6 3c 38 7a db bc d7 b6 24 bd 8f b6 18 bd
       0.02038294 -0.026791677 -0.040213432 -0.037283476
000320 84 58 1b bd 6b b5 0f bb 7b 05 d6 bc 24 a2 21 3d
       -0.037926212 -0.0021928202 -0.02612566 0.03946127
000330 98 97 01 3d 68 d6 f4 3c bb 12 a3 bc 03 71 21 3d
       0.03163871 0.029887393 -0.019906392 0.039414417
000340 1b f5 e4 3c 80 b1 9f bc 56 b9 63 3c 96 b1 58 bc
       0.027948907 -0.019493818 0.013899168 -0.013225934
000350 4e df 24 bd e7 c3 28 3d 06 da 88 3c b6 fa c8 bb
       -0.040252022 0.041202452 0.016705524 -0.0061334027
000360 16 9a d8 bb 42 73 0c 3d a0 4d e9 3b 98 47 85 bc
       -0.0066101654 0.034289606 0.0071198493 -0.01626949
000370 c7 ad 01 bd 76 7b 23 3c d6 2b e3 bc 40 20 bd 3b
       -0.031659868 0.009978166 -0.027730864 0.0057716668
000380 60 f2 91 3c 96 2e 80 bc 0b c8 4b 3c 67 12 27 bd
       0.017815769 -0.015647214 0.012437831 -0.040789034
000390 90 cc 59 bc 3f 8e 27 3d 76 9a 0c bc 4e ea dd 3c
       -0.0132934 0.04090714 -0.008581748 0.027089264
0003a0 86 38 af bc d8 4c 84 3c 6e c0 05 bd 30 b4 51 bc
       -0.021389257 0.016149923 -0.03265422 -0.012799308
0003b0 bc 16 13 3d 80 e2 c1 3a 1f 31 0c 3d de 14 cd bc
       0.035910353 0.0014792234 0.034226533 -0.025034364
0003c0 c2 29 23 bd c3 52 d9 bc 68 31 b9 bc 16 c1 a8 3c
       -0.039834745 -0.026528722 -0.022606567 0.020599883
0003d0 6e 09 8f 3c 6e 4e df bc 10 24 f8 bc 0b b3 af bc
       0.017460551 -0.027259078 -0.030290633 -0.021447679
0003e0 2e ea 85 bc 20 66 6e bc fe c0 81 bc b0 1b 25 bc
       -0.016347017 -0.014550716 -0.015839096 -0.010077402
0003f0 e6 06 1c 3c 18 8d 12 3d 98 a2 0e 3d a3 9f 8b bc
       0.009523129 0.03577909 0.03482303 -0.017043894

gen.conv2.conv.bias f4 [32]
000000 6b f1 60 bc ca b2 11 bd 56 56 64 ba 80 29 e3 ba
       -0.0137294335 -0.035570897 -0.0008710375 -0.0017331094
000010 6b 61 c7 3c db 6a 61 3c e8 6c 86 3c 5b 9a 5a bc
       0.024338445 0.0137583865 0.016409352 -0.013342465
000020 76 69 88 bc ce ed 8f 3c 98 ba a9 bc 56 ed b5 38
       -0.01665185 0.017569449 -0.020718858 8.67496e-05
000030 bb 93 21 3c 3b d5 6b bc 36 a6 49 bc 0b 85 4e 3c
       0.009861882 -0.0143941 -0.012307694 0.012604962
000040 f6 85 a8 3b eb 2d 9f bc e0 82 e5 3c cb 61 c0 bb
       0.0051429225 -0.019431075 0.028016508 -0.005871033
000050 48 96 24 3d d6 96 0d bd 90 f5 b5 3c b0 f2 0d 3d
       0.040182382 -0.034567676 0.02221182 0.034655273
000060 63 47 26 3d 9e 6d 04 bd 1b 04 ee bc 30 e8 0d 3d
       0.040595423 -0.0323311 -0.029054692 0.03464526
000070 a6 da 15 3d 13 e3 09 3d eb 92 79 3b ab d4 84 3b
       0.036585473 0.03366382 0.0038081955 0.0040536723

gen.conv2.norm.weight f4 [32]
000000 00 00 80 3f 00 00 80 3f 00 00 80 3f 00 00 80 3f
       1.0 1.0 1.0 1.0
000010 00 00 80 3f 00 00 80 3f 00 00 80 3f 00 00 80 3f
       1.0 1.0 1.0 1.0
000020 00 00 80 3f 00 00 80 3f 00 00 80 3f 00 00 80 3f
       1.0 1.0 1.0 1.0
000030 00 00 80 3f 00 00 80 3f 00 00 80 3f 00 00 80 3f
       1.0 1.0 1.0 1.0
000040 00 00 80 3f 00 00 80 3f 00 00 80 3f 00 00 80 3f
       1.0 1.0 1.0 1.0
000050 00 00 80 3f 00 00 80 3f 00 00 80 3f 00 00 80 3f
       1.0 1.0 1.0 1.0
000060 00 00 80 3f 00 00 80 3f 00 00 80 3f 00 00 80 3f
       1.0 1.0 1.0 1.0
000070 00 00 80 3f 00 00 80 3f 00 00 80 3f 00 00 80 3f
       1.0 1.0 1.0 1.0

gen.conv2.norm.bias f4 [32]
000000 00 00 00 00 00 00 00 00 00 00 00 00 00 00 00 00
       0.0 0.0 0.0 0.0
000010 00 00 00 00 00 00 00 00 00 00 00 00 00 00 00 00
       0.0 0.0 0.0 0.0
000020 00 00 00 00 00 00 00 00 00 00 00 00 00 00 00 00
       0.0 0.0 0.0 0.0
000030 00 00 00 00 00 00 00 00 00 00 00 00 00 00 00 00
       0.0 0.0 0.0 0.0
000040 00 00 00 00 00 00 00 00 00 00 00 00 00 00 00 00
       0.0 0.0 0.0 0.0
000050 00 00 00 00 00 00 00 00 00 00 00 00 00 00 00 00
       0.0 0.0 0.0 0.0
000060 00 00 00 00 00 00 00 00 00 00 00 00 00 00 00 00
       0.0 0.0 0.0 0.0
000070 00 00 00 00 00 00 00 00 00 00 00 00 00 00 00 00
       0.0 0.0 0.0 0.0

gen.conv2.norm.running_mean f4 [32]
000000 00 00 00 00 00 00 00 00 00 00 00 00 00 00 00 00
       0.0 0.0 0.0 0.0
000010 00 00 00 00 00 00 00 00 00 00 00 00 00 00 00 00
       0.0 0.0 0.0 0.0
000020 00 00 00 00 00 00 00 00 00 00 00 00 00 00 00 00
       0.0 0.0 0.0 0.0
000030 00 00 00 00 00 00 00 00 00 00 00 00 00 00 00 00
       0.0 0.0 0.0 0.0
000040 00 00 00 00 00 00 00 00 00 00 00 00 00 00 00 00
       0.0 0.0 0.0 0.0
000050 00 00 00 00 00 00 00 00 00 00 00 00 00 00 00 00
       0.0 0.0 0.0 0.0
000060 00 00 00 00 00 00 00 00 00 00 00 00 00 00 00 00
       0.0 0.0 0.0 0.0
000070 00 00 00 00 00 00 00 00 00 00 00 00 00 00 00 00
       0.0 0.0 0.0 0.0

gen.conv2.norm.running_var f4 [32]
000000 00 00 80 3f 00 00 80 3f 00 00 80 3f 00 00 80 3f
       1.0 1.0 1.0 1.0
000010 00 00 80 3f 00 00 80 3f 00 00 80 3f 00 00 80 3f
       1.0 1.0 1.0 1.0
000020 00 00 80 3f 00 00 80 3f 00 00 80 3f 00 00 80 3f
       1.0 1.0 1.0 1.0
000030 00 00 80 3f 00 00 80 3f 00 00 80 3f 00 00 80 3f
       1.0 1.0 1.0 1.0
000040 00 00 80 3f 00 00 80 3f 00 00 80 3f 00 00 80 3f
       1.0 1.0 1.0 1.0
000050 00 00 80 3f 00 00 80 3f 00 00 80 3f 00 00 80 3f
       1.0 1.0 1.0 1.0
000060 00 00 80 3f 00 00 80 3f 00 00 80 3f 00 00 80 3f
       1.0 1.0 1.0 1.0
000070 00 00 80 3f 00 00 80 3f 00 00 80 3f 00 00 80 3f
       1.0 1.0 1.0 1.0

gen.conv_transpose1.conv.weight f4 [32, 64, 3, 3]
000000 b6 d8 ea bc 00 30 75 39 14 38 06 3d 1b c2 3e bc
       -0.028667789 0.00023382902 0.032768324 -0.011642958
000010 7e 6f 87 3c be 4d 1f bd d6 5d d8 bc 23 fe 14 bd
       0.016532656 -0.0388925 -0.026411932 -0.036375176
000020 1e ba d0 3c 2b fd 80 ba 60 cc 57 3c 58 dc 89 3c
       0.025479373 -0.0009841075 0.013171285 0.0168287
000030 58 ad b8 3c 6e 71 82 bc cc 39 0f 3d 7b d6 d0 3c
       0.022543594 -0.015923228 0.03496723 0.025492897
000040 18 7b 26 3d 78 d9 84 3c 16 62 32 3b f2 27 23 bd
       0.040644735 0.016216978 0.0027219108 -0.039833017
000050 0b 33 a0 3b 16 02 40 3b ba b2 19 3d a0 2d 0b 3d
       0.0048888973 0.0029298118 0.037523963 0.03397906
000060 1b 14 12 3c eb fe ac 3b 70 16 7d bc a0 c0 e9 bc
       0.008915926 0.005279412 -0.015447244 -0.028534234
000070 ae 5c 99 3c 36 db 5f bc 2e 92 f8 3c 2f 28 0a 3d
       0.01872095 -0.013663104 0.030343141 0.03372973
000080 7a 2c 19 bd 98 4d b4 bc 76 a3 23 bd c6 31 9d 3c
       -0.03739593 -0.022009656 -0.03995081 0.019188773
000090 06 b9 24 bc 0e 31 b2 3c d6 22 e7 ba b3 9a c8 bc
       -0.010053879 0.021751907 -0.0017634283 -0.024487829
0000a0 fe a1 09 3d c0 3b 79 3c 07 04 27 3d aa d0 02 bd
       0.033601753 0.015211999 0.040775325 -0.03193728
0000b0 a0 1d 02 3c 56 58 3c bb b0 ca 10 3d 4e 3e a4 3c
       0.007941633 -0.0028739176 0.035349548 0.02004924
0000c0 b6 ae a3 3c 6b 4c e7 bb 56 fb f7 b9 6e 0d a5 bc
       0.01998077 -0.0070586703 -0.0004729877 -0.020148005
0000d0 80 86 6b bb 4b ae 3b bc 06 7b d9 3c c0 41 a0 bb
       -0.0035938323 -0.011455129 0.02654792 -0.0048906505
0000e0 60 73 45 3c ab 4a 5d ba d6 fa b5 bb 42 9b 0a 3d
       0.012051433 -0.00084416074 -0.0055535836 0.03383947
0000f0 7b e1 ff 3c 48 6b f8 bc de d7 cb 3c eb 35 41 bc
       0.031235447 -0.030324593 0.024883207 -0.01179264
000100 4b bc cf 3b f6 0c 84 3b 98 0e d8 bc 48 b2 05 3d
       0.006339585 0.0040298654 -0.026374146 0.032640725
000110 02 63 1c 3d e8 08 e1 3c c0 3c 30 3b 83 ab a4 bc
       0.03818036 0.027470067 0.0026891679 -0.020101314
000120 2e 93 cc 3c 6b 8e 40 bc 46 1d 1e bd 26 5f 01 3c
       0.024972524 -0.011752705 -0.038602136 0.00789622
000130 a0 b1 41 3c 4f 09 15 bd d3 40 e5 3c c3 43 c5 bc
       0.011822134 -0.03638583 0.027985012 -0.024080163
000140 db 3a 3b bc 5b 83 39 3c c2 83 13 bd 60 69 ec bb
       -0.011427606 0.0113228215 -0.036014326 -0.00721471
000150 40 b8 55 3c 20 68 cd 3b 80 6e 33 3b a3 c8 db 3c
       0.013044417 0.006268516 0.0027379096 0.02682907
000160 cb f2 04 3d 0e 90 d0 bc 68 35 11 bd 0b ca 32 bc
       0.032458108 -0.025459316 -0.035451323 -0.010912429
000170 d8 3c 14 bd 67 0c 0b bd d6 ac 89 3a d0 08 70 bc
       -0.036190838 -0.033947375 0.001050378 -0.014650539
000180 eb f4 5f 3b e6 27 f5 bc ab 2d b5 3a 80 cd 31 bb
       0.0034173082 -0.029926252 0.0013822814 -0.0027130544
000190 26 fc 17 bd 00 51 56 3a e6 22 65 bc 78 a3 aa bc
       -0.037105702 0.0008175522 -0.013985371 -0.020829901
0001a0 df be 22 bd 63 44 cd bc 80 b5 29 bd 7f c7 08 bd
       -0.03973281 -0.025057023 -0.041432858 -0.03339338
0001b0 2b 5f 13 bb ac 20 15 bd b3 ed 8a bc 56 cd e8 3a
       -0.0022487144 -0.03640811 -0.016959047 0.001776139
0001c0 90 c8 a3 bc c0 bc e0 bc a0 8f d2 3c 5b 83 2f bc
       -0.019993097 -0.027433753 0.025703251 -0.01071247
0001d0 6b 60 7c bb d6 66 86 ba 6b 7c 54 bb 8e 08 e2 bc
       -0.0038509618 -0.0010254036 -0.0032422792 -0.02759197
0001e0 0e a3 e6 bc e2 f0 0f bd de 03 ea bc b4 82 24 bd
       -0.028153922 -0.035141833 -0.028566297 -0.04016371
0001f0 66 aa f2 bc a0 e7 43 3c 86 69 f3 bc a0 f6 d2 bb
       -0.029622268 0.011957079 -0.029713403 -0.0064380914
000200 76 79 2b bc 03 b3 86 bc 96 84 c9 3b 8b 92 e9 bb
       -0.01046597 -0.016442781 0.0061498387 -0.007128065
000210 a6 fd 16 bd b7 23 25 bd 2e 99 e5 bc ec 9b 12 3d
       -0.03686299 -0.040317263 -0.028027143 0.03579323
000220 00 b2 dc 39 a0 f1 9f 3c e7 52 0a bd 6b 84 24 3c
       0.0004209429 0.019524395 -0.033770468 0.0100413365
000230 90 1f fd bc 36 f8 47 bc 6b db 1b bb 76 99 15 3d
       -0.03089884 -0.012205174 -0.0023781906 0.036523305
000240 cb 0a 04 3d c8 fd cf bc 00 15 6d 3c 00 d7 71 bb
       0.032236855 -0.025389567 0.014470339 -0.0036901832
000250 6b 89 c8 bc 73 b8 a8 3c 96 e1 a8 3c e6 e3 22 3d
       -0.024479588 0.020595765 0.02061538 0.039768122
000260 56 35 2a b9 3a 21 06 3d 3f 55 23 bd 16 3f 87 bc
       -0.00016232333 0.03274653 -0.03987622 -0.016509574
000270 20 0e 20 3c 40 12 9e 3b 38 59 0a 3d d3 5d bb bc
       0.009768993 0.004823953 0.033776492 -0.022871887
000280 e0 4d 97 3c 96 84 d4 3b 66 ce e7 bc e6 d6 c5 bc
       0.01846975 0.006485532 -0.02829666 -0.024150323
000290 e8 82 84 bc 4b 8c 56 3c eb 4a 2a bd f0 ea 59 bc
       -0.016175702 0.013094972 -0.041575354 -0.013300642
0002a0 63 13 15 3d 20 0f d7 3c 96 50 d6 3b d6 6d ad bc
       0.03639544 0.02625233 0.0065403683 -0.021170538
0002b0 2b 2c d1 3c cc c0 00 3d 1b cc ae 3c b8 c6 fa bc
       0.025533756 0.031433865 0.02133756 -0.030612335
0002c0 ab 56 21 b9 ca cb 20 3d 00 24 44 bb 5b dc 67 3c
       -0.00015386443 0.03925685 -0.0029928684 0.014151658
0002d0 c0 69 81 bb 8b e4 b8 3c 80 32 8b ba 93 4c d4 bc
       -0.003949374 0.022569915 -0.0010619909 -0.02591542
0002e0 b0 de bd 3c de 68 d5 bc f0 d3 0a bd a0 3f 90 3b
       0.023177475 -0.026050981 -0.033893526 0.004402116
0002f0 20 66 99 bc 00 7f 2e ba de dc bb bc 83 72 b6 bc
       -0.018725455 -0.0006656498 -0.022932466 -0.0222714
000300 68 d6 85 bc 4f ab 29 bd 46 30 88 bc 8e cf a3 3c
       -0.016337588 -0.04142314 -0.016624581 0.01999643
000310 d3 25 12 3d 46 cb 3f 3c 56 a9 ca ba c0 c9 e2 bb
       0.035680603 0.011706179 -0.0015461843 -0.006921023
000320 38 f7 92 3c 66 5c 6c bc 47 0f 27 3d 00 7f 26 bd
       0.017940149 -0.014426326 0.040786054 -0.04064846
000330 ca 5a 1f bd 30 aa 2e 3c a8 84 08 3d ab a2 b2 ba
       -0.038904943 0.010660693 0.033329636 -0.0013628801
000340 63 8c f6 3c 90 1a 83 3c ba 0e 12 bd 2e 36 d0 bc
       0.030096238 0.016003877 -0.035658576 -0.02541646
000350 76 1e 13 3c 6e c6 14 bd ce e4 26 bd 88 cd 9c 3c
       0.00897943 -0.03632205 -0.04074555 0.019140974
000360 0e 88 c9 bc 5b 1d 6f 3c 5c d9 10 bd ce 71 d0 bc
       -0.024601009 0.014594401 -0.03536354 -0.025444891
000370 e6 e9 10 bc a0 d6 f1 bc 37 7d 1b bd c3 1e 06 bd
       -0.008844828 -0.029521286 -0.03796121 -0.03274418
000380 a0 0e ef bc be 5e b5 3c eb 1a 5d bb 40 dc 0a bd
       -0.029181778 0.022139903 -0.0033737968 -0.033901453
000390 e8 d7 94 3c 2b 65 e3 3b c3 f4 fa 3c 36 94 28 bc
       0.018169358 0.0069395504 0.03063429 -0.0102892425
0003a0 6b 6b cc 3b ab bc 2e bb 00 a8 0e 39 30 d6 f2 3c
       0.006238391 -0.0026662748 0.0001360476 0.029643148
0003b0 5e 64 ab 3c 28 69 fd 3c 6b 5e a1 bb 68 da a4 3c
       0.020921882 0.030933931 -0.0049245856 0.020123675
0003c0 16 9c fe 3b 70 a6 5c bc 47 86 2a bd 12 33 18 3d
       0.0077700717 -0.013467416 -0.041631963 0.03715808
0003d0 b0 09 4f bc 38 4d 0a bd 38 16 89 3c c0 0f aa bc
       -0.012636587 -0.033765048 0.016734228 -0.020759463
0003e0 20 b4 06 bd de 9e da bc 58 c0 88 bc 66 76 c3 3c
       -0.032886624 -0.026687082 -0.01669328 0.023860168
0003f0 ee ca c2 3c 80 80 d8 bb 9e 16 b9 3c e8 f1 bc bc
       0.023778405 -0.0066071153 0.022593793 -0.023064569

gen.conv_transpose1.conv.bias f4 [64]
000000 c6 9e c6 bc 2c 9e 00 3d 86 e0 fd 3c 8e 4e ce 3c
       -0.024245631 0.031400844 0.03099085 0.025183942
000010 6e ca fe 3c 70 81 88 3c 56 5b fa 3c 4b 9a 82 bb
       0.031102385 0.016663283 0.03056113 -0.0039856783
000020 6b 71 0d 3c 00 69 8c 3c 1a fa 20 3d 56 bc 53 3c
       0.008632998 0.017139912 0.039301015 0.012923321
000030 8b 8a d7 bb 80 ad 07 bd d8 dd 0b bd cb 1e 2d 3c
       -0.006577795 -0.033124447 -0.034147114 0.010566424
000040 80 d5 c2 ba 46 e2 b4 3c 4b 7f 01 3d e3 a9 9d bc
       -0.0014864653 0.022080552 0.031615537 -0.019246047
000050 96 c9 9c bc c0 5f d7 3c 7e fb 0c 3d d3 25 08 3d
       -0.019139092 0.026290774 0.03441953 0.033239197
000060 0c 7f 16 3d a6 da f7 3c c8 00 26 3d 1b d1 e9 bc
       0.036742255 0.030255627 0.04052809 -0.028542092
000070 36 24 dc bc 80 bc 56 bb 30 11 ac bc b3 ea 82 bc
       -0.026872735 -0.0032766163 -0.02100429 -0.015981054
000080 03 f6 c0 bc a8 f6 ae 3c 16 11 3b 3b 60 98 84 3b
       -0.023554808 0.02135785 0.002854412 0.004046485
000090 b6 55 8f 3b 40 e9 b5 3c a3 3e ae 3c a0 af e1 3c
       0.004374231 0.022205949 0.021270102 0.027549565
0000a0 96 bd 11 3d b4 6a 11 3d 60 19 71 bc 48 8b 88 bc
       0.035581194 0.03550215 -0.0147155225 -0.016667977
0000b0 9e 52 00 bd b6 d7 fb 3c 58 aa c5 bc 38 07 06 bd
       -0.03132879 0.030742507 -0.024129078 -0.032721728
0000c0 5b 1d 5d 3c 9b bf 44 bc 40 dd f0 bb 40 94 94 bc
       0.013495768 -0.012008573 -0.007350594 -0.018137097
0000d0 1e 92 0e bd ab 73 c0 ba f6 89 09 bd c0 0b 20 3b
       -0.034807317 -0.0014682909 -0.033578835 0.0024421066
0000e0 46 51 77 3c cb 0d 0a 3d fb 77 07 3c 06 87 51 3c
       0.015095061 0.03370456 0.008268352 0.01278854
0000f0 40 b8 14 bb c0 35 1d bb b6 56 6b bc 17 de 29 bd
       -0.002269283 -0.0023988336 -0.014363935 -0.041471567

gen.conv_transpose1.norm.weight f4 [64]
000000 00 00 80 3f 00 00 80 3f 00 00 80 3f 00 00 80 3f
       1.0 1.0 1.0 1.0
000010 00 00 80 3f 00 00 80 3f 00 00 80 3f 00 00 80 3f
       1.0 1.0 1.0 1.0
000020 00 00 80 3f 00 00 80 3f 00 00 80 3f 00 00 80 3f
       1.0 1.0 1.0 1.0
000030 00 00 80 3f 00 00 80 3f 00 00 80 3f 00 00 80 3f
       1.0 1.0 1.0 1.0
000040 00 00 80 3f 00 00 80 3f 00 00 80 3f 00 00 80 3f
       1.0 1.0 1.0 1.0
000050 00 00 80 3f 00 00 80 3f 00 00 80 3f 00 00 80 3f
       1.0 1.0 1.0 1.0
000060 00 00 80 3f 00 00 80 3f 00 00 80 3f 00 00 80 3f
       1.0 1.0 1.0 1.0
000070 00 00 80 3f 00 00 80 3f 00 00 80 3f 00 00 80 3f
       1.0 1.0 1.0 1.0
000080 00 00 80 3f 00 00 80 3f 00 00 80 3f 00 00 80 3f
       1.0 1.0 1.0 1.0
000090 00 00 80 3f 00 00 80 3f 00 00 80 3f 00 00 80 3f
       1.0 1.0 1.0 1.0
0000a0 00 00 80 3f 00 00 80 3f 00 00 80 3f 00 00 80 3f
       1.0 1.0 1.0 1.0
0000b0 00 00 80 3f 00 00 80 3f 00 00 80 3f 00 00 80 3f
       1.0 1.0 1.0 1.0
0000c0 00 00 80 3f 00 00 80 3f 00 00 80 3f 00 00 80 3f
       1.0 1.0 1.0 1.0
0000d0 00 00 80 3f 00 00 80 3f 00 00 80 3f 00 00 80 3f
       1.0 1.0 1.0 1.0
0000e0 00 00 80 3f 00 00 80 3f 00 00 80 3f 00 00 80 3f
       1.0 1.0 1.0 1.0
0000f0 00 00 80 3f 00 00 80 3f 00 00 80 3f 00 00 80 3f
       1.0 1.0 1.0 1.0

gen.conv_transpose1.norm.bias f4 [64]
000000 00 00 00 00 00 00 00 00 00 00 00 00 00 00 00 00
       0.0 0.0 0.0 0.0
000010 00 00 00 00 00 00 00 00 00 00 00 00 00 00 00 00
       0.0 0.0 0.0 0.0
000020 00 00 00 00 00 00 00 00 00 00 00 00 00 00 00 00
       0.0 0.0 0.0 0.0
000030 00 00 00 00 00 00 00 00 00 00 00 00 00 00 00 00
       0.0 0.0 0.0 0.0
000040 00 00 00 00 00 00 00 00 00 00 00 00 00 00 00 00
       0.0 0.0 0.0 0.0
000050 00 00 00 00 00 00 00 00 00 00 00 00 00 00 00 00
       0.0 0.0 0.0 0.0
000060 00 00 00 00 00 00 00 00 00 00 00 00 00 00 00 00
       0.0 0.0 0.0 0.0
000070 00 00 00 00 00 00 00 00 00 00 00 00 00 00 00 00
       0.0 0.0 0.0 0.0
000080 00 00 00 00 00 00 00 00 00 00 00 00 00 00 00 00
       0.0 0.0 0.0 0.0
000090 00 00 00 00 00 00 00 00 00 00 00 00 00 00 00 00
       0.0 0.0 0.0 0.0
0000a0 00 00 00 00 00 00 00 00 00 00 00 00 00 00 00 00
       0.0 0.0 0.0 0.0
0000b0 00 00 00 00 00 00 00 00 00 00 00 00 00 00 00 00
       0.0 0.0 0.0 0.0
0000c0 00 00 00 00 00 00 00 00 00 00 00 00 00 00 00 00
       0.0 0.0 0.0 0.0
0000d0 00 00 00 00 00 00 00 00 00 00 00 00 00 00 00 00
       0.0 0.0 0.0 0.0
0000e0 00 00 00 00 00 00 00 00 00 00 00 00 00 00 00 00
       0.0 0.0 0.0 0.0
0000f0 00 00 00 00 00 00 00 00 00 00 00 00 00 00 00 00
       0.0 0.0 0.0 0.0

gen.conv_transpose1.norm.running_mean f4 [64]
000000 00 00 00 00 00 00 00 00 00 00 00 00 00 00 00 00
       0.0 0.0 0.0 0.0
000010 00 00 00 00 00 00 00 00 00 00 00 00 00 00 00 00
       0.0 0.0 0.0 0.0
000020 00 00 00 00 00 00 00 00 00 00 00 00 00 00 00 00
       0.0 0.0 0.0 0.0
000030 00 00 00 00 00 00 00 00 00 00 00 00 00 00 00 00
       0.0 0.0 0.0 0.0
000040 00 00 00 00 00 00 00 00 00 00 00 00 00 00 00 00
       0.0 0.0 0.0 0.0
000050 00 00 00 00 00 00 00 00 00 00 00 00 00 00 00 00
       0.0 0.0 0.0 0.0
000060 00 00 00 00 00 00 00 00 00 00 00 00 00 00 00 00
       0.0 0.0 0.0 0.0
000070 00 00 00 00 00 00 00 00 00 00 00 00 00 00 00 00
       0.0 0.0 0.0 0.0
000080 00 00 00 00 00 00 00 00 00 00 00 00 00 00 00 00
       0.0 0.0 0.0 0.0
000090 00 00 00 00 00 00 00 00 00 00 00 00 00 00 00 00
       0.0 0.0 0.0 0.0
0000a0 00 00 00 00 00 00 00 00 00 00 00 00 00 00 00 00
       0.0 0.0 0.0 0.0
0000b0 00 00 00 00 00 00 00 00 00 00 00 00 00 00 00 00
       0.0 0.0 0.0 0.0
0000c0 00 00 00 00 00 00 00 00 00 00 00 00 00 00 00 00
       0.0 0.0 0.0 0.0
0000d0 00 00 00 00 00 00 00 00 00 00 00 00 00 00 00 00
       0.0 0.0 0.0 0.0
0000e0 00 00 00 00 00 00 00 00 00 00 00 00 00 00 00 00
       0.0 0.0 0.0 0.0
0000f0 00 00 00 00 00 00 00 00 00 00 00 00 00 00 00 00
       0.0 0.0 0.0 0.0

gen.conv_transpose1.norm.running_var f4 [64]
000000 00 00 80 3f 00 00 80 3f 00 00 80 3f 00 00 80 3f
       1.0 1.0 1.0 1.0
000010 00 00 80 3f 00 00 80 3f 00 00 80 3f 00 00 80 3f
       1.0 1.0 1.0 1.0
000020 00 00 80 3f 00 00 80 3f 00 00 80 3f 00 00 80 3f
       1.0 1.0 1.0 1.0
000030 00 00 80 3f 00 00 80 3f 00 00 80 3f 00 00 80 3f
       1.0 1.0 1.0 1.0
000040 00 00 80 3f 00 00 80 3f 00 00 80 3f 00 00 80 3f
       1.0 1.0 1.0 1.0
000050 00 00 80 3f 00 00 80 3f 00 00 80 3f 00 00 80 3f
       1.0 1.0 1.0 1.0
000060 00 00 80 3f 00 00 80 3f 00 00 80 3f 00 00 80 3f
       1.0 1.0 1.0 1.0
000070 00 00 80 3f 00 00 80 3f 00 00 80 3f 00 00 80 3f
       1.0 1.0 1.0 1.0
000080 00 00 80 3f 00 00 80 3f 00 00 80 3f 00 00 80 3f
       1.0 1.0 1.0 1.0
000090 00 00 80 3f 00 00 80 3f 00 00 80 3f 00 00 80 3f
       1.0 1.0 1.0 1.0
0000a0 00 00 80 3f 00 00 80 3f 00 00 80 3f 00 00 80 3f
       1.0 1.0 1.0 1.0
0000b0 00 00 80 3f 00 00 80 3f 00 00 80 3f 00 00 80 3f
       1.0 1.0 1.0 1.0
0000c0 00 00 80 3f 00 00 80 3f 00 00 80 3f 00 00 80 3f
       1.0 1.0 1.0 1.0
0000d0 00 00 80 3f 00 00 80 3f 00 00 80 3f 00 00 80 3f
       1.0 1.0 1.0 1.0
0000e0 00 00 80 3f 00 00 80 3f 00 00 80 3f 00 00 80 3f
       1.0 1.0 1.0 1.0
0000f0 00 00 80 3f 00 00 80 3f 00 00 80 3f 00 00 80 3f
       1.0 1.0 1.0 1.0

gen.conv_transpose2.weight f4 [64, 1, 4, 4]
000000 5c ef 80 bd ec 80 44 3e f0 7a bb bc 40 dc 89 bb
       -0.06295654 0.19189805 -0.02288577 -0.004207164
000010 10 94 1f 3d e4 e6 fd 3d 68 58 38 bd 08 ba a0 3d
       0.038959563 0.123975545 -0.045006186 0.07847983
000020 10 b9 56 be 5a cb 49 be a0 4b 47 bd 10 ee e8 3c
       -0.20969033 -0.19706479 -0.048656106 0.02843383
000030 58 cc 4e 3e 34 08 97 3d 26 46 74 be 2e 0e 14 3e
       0.20195138 0.073746115 -0.23854885 0.14458534
000040 20 67 16 be 12 d6 34 be 18 34 87 3d c0 21 fb 3c
       -0.14687777 -0.17659786 0.06601733 0.030655742
000050 a0 06 41 3d c8 5d 9d 3d 28 a8 de bd 50 d6 32 3d
       0.04712546 0.07683903 -0.10871917 0.043661416
000060 ae 39 25 3e b0 ce 17 bd 72 96 27 be ac 32 47 be
       0.16135284 -0.037062347 -0.16365984 -0.19452924
000070 ee 80 57 3e 0c 1d 8c bd e8 9d 8e 3d 36 db 2e be
       0.21045277 -0.06841478 0.06963712 -0.1707581
000080 a4 41 56 3e 60 ea fa bc dc 62 01 3e b0 d7 e3 3c
       0.20923477 -0.030629337 0.12635368 0.027812809
000090 1c 3a 32 be 10 9d 36 bd f8 48 4b be 68 ed 3b bd
       -0.1740498 -0.04458338 -0.19852054 -0.045880705
0000a0 a4 48 0d be bc 6b 45 be 7a 0b 1e 3e 0c 01 60 be
       -0.13797241 -0.19279379 0.15434065 -0.218754
0000b0 f8 11 56 3d 1c 01 e3 bd 8a 52 6a be 18 3a 31 3d
       0.05226323 -0.11084196 -0.22883049 0.043268293
0000c0 c6 7a 62 3e 00 bc 49 3d d4 2c 1c be dc 91 31 3e
       0.22117147 0.049251556 -0.15251476 0.17340797
0000d0 40 4d c8 3d c0 54 12 be 3a 63 06 3e 22 14 6d 3e
       0.09780359 -0.14290142 0.1312379 0.23152211
0000e0 50 25 73 3e ac 4f cb 3d 54 19 e6 bd fc 47 60 be
       0.23744702 0.099273056 -0.112353 -0.2190246
0000f0 c8 41 ec 3d 6a de 3d 3e 64 c7 5d be 7e 2d 19 be
       0.11535984 0.18541875 -0.21658093 -0.1495876
000100 26 73 0c 3e f8 d7 52 3d 7c 90 1b 3e 8c 04 25 3e
       0.137158 0.051475495 0.15191835 0.16115016
000110 12 80 46 3e 08 40 3b 3d 4a bd 1a 3e a4 e1 1e be
       0.19384792 0.04571536 0.1511127 -0.15515763
000120 c8 b1 cc 3d ba a6 76 be c8 a5 10 be 68 ef 5b be
       0.099948466 -0.24087039 -0.1412574 -0.21478045
000130 20 ee 4f be f0 a8 89 3d 76 f7 23 3e f0 38 34 3d
       -0.20305681 0.067216754 0.16012368 0.043999612
000140 4a ac 50 3e 94 22 76 be be 4b 13 be e4 fa e7 3d
       0.20378223 -0.24036628 -0.14384362 0.113271505
000150 08 f7 5b bd 20 83 de bc a4 4c 69 3e 54 bb 0f 3e
       -0.053702384 -0.027162135 0.22783142 0.14036304
000160 ac a2 0b be 70 7f a9 3c 2c 1e 2a 3e d8 c7 26 bd
       -0.13636273 0.02069065 0.16613072 -0.04071793
000170 1c 58 87 bd 78 71 16 bd c4 90 74 be b0 41 53 be
       -0.066086024 -0.036729306 -0.23883349 -0.20630527
000180 90 b0 d4 3c c2 e9 60 3e 96 ed 1d be bc 64 58 3e
       0.025963098 0.21964172 -0.15422663 0.21132177
000190 d0 0d 29 be 80 5d 4d 3d 80 81 3e bb ae be 12 3e
       -0.16509175 0.050137997 -0.0029068887 0.14330551
0001a0 00 6f 93 3d 50 dc 05 be f4 5d 16 3e 56 d9 5c 3e
       0.07198906 -0.13072324 0.14684278 0.21567282
0001b0 d0 92 42 bd d0 05 31 3d 00 18 1c bd 06 73 1a 3e
       -0.047503293 0.043218434 -0.038108826 0.1508294
0001c0 9a 91 1b 3e a8 54 33 be 30 bb 0c be 2c 24 80 3d
       0.15192261 -0.17512763 -0.13743281 0.06256899
0001d0 12 1a 30 3e bc 33 48 3e b4 99 80 3d 58 ec 08 3d
       0.17197445 0.19550985 0.062793165 0.03342852
0001e0 50 ce 0f bd f8 38 25 3d 18 97 f4 bd b4 41 81 3d
       -0.035108864 0.040337533 -0.11942881 0.0631136
0001f0 d0 a2 ba 3d 46 4f 22 3e ae db 52 be 80 c3 7c 3c
       0.09113085 0.15850553 -0.20591614 0.01542747
000200 18 ad 76 be 88 f7 be 3d 40 d4 13 bd 52 88 2e be
       -0.24089468 0.093245566 -0.03609109 -0.1704419
000210 70 8f 15 bd 6c 93 36 3e fa 99 60 be 9a c0 7a be
       -0.036513746 0.17829674 -0.21933737 -0.24487534
000220 c2 2b 40 be 34 b1 34 be b0 03 c7 3c 90 11 0f 3e
       -0.18766692 -0.17645723 0.02429375 0.13971543
000230 e8 02 7a 3e d4 46 38 be d0 b8 28 3e b0 3f 4c 3d
       0.24415171 -0.17995769 0.1647675 0.049865425
000240 bc a9 c4 3d 38 7b 6f 3e 80 1d 53 3e 80 10 28 3b
       0.09602687 0.23386848 0.20616722 0.00256446
000250 04 e0 42 be 60 95 b0 3d 28 a2 64 3d 78 ef 3f 3d
       -0.19030768 0.08622241 0.055818707 0.046859235
000260 bc 03 05 3e f8 52 1f 3e 84 10 f6 bd d0 8e d1 bd
       0.12989706 0.15558994 -0.12014869 -0.102323174
000270 8a 20 63 3e 52 22 30 3e ac b1 14 3e bc 15 34 be
       0.22180381 0.17200592 0.14520901 -0.17586416
000280 2c af 87 3d 5c 6b 61 be f8 7d 0e 3d de 97 78 be
       0.06625208 -0.2201361 0.034788102 -0.24276683
000290 6c d0 8a 3d d4 d6 91 3d 96 38 76 3e 60 5e 5a 3d
       0.067780346 0.07121053 0.24045023 0.05331266
0002a0 78 ae 5d 3d 6c 83 86 bd 80 ec ca 3d 80 57 d3 bb
       0.054121464 -0.065680355 0.0990839 -0.00644964
0002b0 2e 50 02 3e fc 1d 4c 3e e2 93 4d 3e c0 cc 33 bd
       0.12725899 0.19933313 0.20075944 -0.043896437
0002c0 d2 10 5c be 80 a1 7d 3d 24 ca 4d be f8 bf 42 be
       -0.21490791 0.061921597 -0.20096642 -0.19018543
0002d0 f2 9f 06 3e 38 44 3d be 30 8b 61 3d d0 bb 89 3c
       0.13146952 -0.18483055 0.05506438 0.016813189
0002e0 f8 89 8d bd 80 80 a5 bb 10 56 91 bd 00 11 2e 3d
       -0.06911081 -0.005050719 -0.07096493 0.04249668
0002f0 e4 20 fc 3d 5a 3d 79 3e 42 58 57 3e e6 25 11 be
       0.12310961 0.2433981 0.21029761 -0.14174613
000300 80 d8 e3 bc d4 07 6f 3e 5a 24 5a 3e 20 eb cd 3d
       -0.027813196 0.2334283 0.2130293 0.10054612
000310 ee 18 0b be 00 d3 22 bd 18 4d 78 be 92 48 75 3e
       -0.13583729 -0.039752007 -0.24248159 0.23953465
000320 50 20 3a bd 4a 7d 75 3e 7c e4 5c 3e 00 0a 84 ba
       -0.04544097 0.23973575 0.21571535 -0.0010073781
000330 46 3d 23 3e 20 71 e5 3d 6a ad 63 be 78 f9 5f bd
       0.15941343 0.112032175 -0.22234121 -0.05468127
000340 c0 58 70 bc 20 ce 4e be 30 5d 2f 3d 80 45 cb 3c
       -0.014669597 -0.20195818 0.04281348 0.024813414
000350 d0 51 dc 3d 38 ac e1 bd 6e 43 12 3e 94 c0 45 be
       0.10757792 -0.11019176 0.14283535 -0.19311744
000360 04 80 89 3d 5c 21 42 3e 00 09 9d bb f2 db 22 3e
       0.0671387 0.18958038 -0.0047923326 0.15904215
000370 9e 21 22 be 70 0f 8d 3d 0c 39 0a 3e 40 4d b2 3d
       -0.15833136 0.0688771 0.13498324 0.087061405
000380 aa a0 3e 3e 50 85 99 3d c0 f2 47 bc 96 33 19 3e
       0.18615976 0.074961305 -0.012203872 0.14961085
000390 3a 90 1e 3e 9e 04 6d be 44 86 df 3d 5e 6c 61 be
       0.15484706 -0.23146293 0.10914281 -0.22013995
0003a0 00 ee ae 3d 00 d7 c6 3a 60 24 c1 bd 74 b0 22 3e
       0.08541489 0.0015170276 -0.09430766 0.15887624
0003b0 18 11 36 3d f6 73 1c 3e 52 a5 19 be 70 17 80 bc
       0.044449896 0.1527861 -0.15004471 -0.015636176
0003c0 e8 82 76 3e c0 68 83 3d 34 fd 90 3d 96 b8 60 be
       0.24073374 0.06416464 0.07079545 -0.21945414
0003d0 98 9a 68 bd be b3 63 3e 32 f0 61 3e 94 7c 38 3e
       -0.056788057 0.22236535 0.22064283 0.18016273
0003e0 10 9a a3 3d 28 f7 75 3e e0 4e d1 3c e8 3b 8f 3d
       0.079883695 0.24020064 0.025550306 0.06993848
0003f0 60 d9 a2 3d 9e 5a 47 3e 8a 9e 34 3e f4 18 3b 3e
       0.07951617 0.19468161 0.17638603 0.18271238
