code/conditional_p.pt (torch, 167667 bytes, 19 tensors)

gen.conv1.conv.weight f4 [64, 2, 3, 3]
0	0xbdc56dd8	-0.09640092
1	0xbe393e3c	-0.18090147
2	0xbe026880	-0.12735176
3	0x3e676560	0.22597265
4	0xbe0c5c5e	-0.1370711
5	0x3e0e5cb5	0.13902552
6	0xbdee99c8	-0.11650425
7	0x3e41f74c	0.18941993
8	0x3dfdfcb8	0.12401718
9	0xbc6bdd03	-0.014395955
10	0x3c34a1fd	0.011024949
11	0xbd15cc2b	-0.036571663
12	0x3cede733	0.029040908
13	0xbcb25d0c	-0.021772884
14	0x3e712081	0.23547556
15	0xbd02dce8	-0.031948954
16	0xbd7ae771	-0.061255876
17	0xbe55cca2	-0.20878842
18	0xbda6d1cb	-0.081454836
19	0xbe435f61	-0.19079353
20	0x3d53ded6	0.051726185
21	0xbe0b43a1	-0.13600017
22	0xbcfb758f	-0.030695705
23	0x3e517b39	0.20457162
24	0x3b02d34a	0.0019962364
25	0x3dceda52	0.10100235
26	0xbde24bd7	-0.110496216
27	0xbe4b63ca	-0.19862285
28	0x3e592cce	0.21208498
29	0x3a8b6dc0	0.0010637566
30	0x3e5772cf	0.2103989
31	0x3e673348	0.22578156
32	0x3e1be193	0.15222768
33	0x3c21217a	0.009834642
34	0xbe0d7f05	-0.13817985
35	0x3e52cae4	0.20585209
36	0x3d85880a	0.06520088
37	0xbd3f04d9	-0.046635482
38	0x3e533d05	0.20628746
39	0xbd543e72	-0.051817365
40	0xbd450b27	-0.04810634
41	0x3e5cfa75	0.21579917
42	0xbcfa78ae	-0.030575123
43	0xbe283968	-0.16428149
44	0xbe39b3c1	-0.18134977
45	0xbca08797	-0.019595904
46	0xbd44f774	-0.048087552
47	0x3c59f4a2	0.013302954
48	0x3cebf47a	0.028803099
49	0xbda1bcc7	-0.078973345
50	0x3e5f4057	0.21801887
51	0x3e13d707	0.14437495
52	0xbcf4b713	-0.029872453
53	0xbdcfd946	-0.101488635
54	0xbe484824	-0.1955877
55	0xbdd7ba24	-0.105335504
56	0xbdc56764	-0.09638861
57	0xbe078d48	-0.13237488
58	0x3bb28d33	0.005448961
59	0xbe56f95b	-0.20993559
60	0xbd30598b	-0.043054145
61	0xbdaf12bd	-0.08548496
62	0x3de68e3a	0.11257596
63	0x3d9b5b4d	0.075857736
64	0x3d0d056c	0.034429
65	0x3e2cb195	0.16864617
66	0x3d76fb16	0.060298048
67	0x3e2671d2	0.16254357
68	0xbdd9f55c	-0.10642502
69	0x3cc7766d	0.024348462
70	0x3d120f50	0.035659134
71	0x3e12c75f	0.14333867
72	0xbdcee06f	-0.10101401
73	0xbd19c570	-0.037541807
74	0x3e0f59cc	0.13999099
75	0x3e2bf567	0.16792832
76	0xbd9622e0	-0.07330871
77	0xbc216a2c	-0.0098519735
78	0xbd7defb5	-0.06199618
79	0xbe3ad297	-0.18244396
80	0xbcf79e99	-0.030226992
81	0xbe4c3ba1	-0.19944622
82	0xbd5f61af	-0.054536518
83	0x3d9c6025	0.076355256
84	0x3d8b4d58	0.068018615
85	0x3d493d25	0.049130578
86	0xbe672759	-0.22573604
87	0x3e08be42	0.13353828
88	0x3dc37b9e	0.095450625
89	0xbdb367b6	-0.08760016
90	0xbdb225e8	-0.08698636
91	0x3dec885a	0.115494445
92	0xbe649c28	-0.22325194
93	0xbbb10ee3	-0.005403386
94	0xbd7c5d90	-0.061612666
95	0xbcd25bfc	-0.025678627
96	0x3e1449ec	0.14481324
97	0xbe70e91d	-0.23526426
98	0xbe09b59c	-0.13448185
99	0x3e221f18	0.15832174
100	0xbe4a2ec1	-0.19744398
101	0x3d59076d	0.052985597
102	0xbc9eb6dd	-0.019374305
103	0x3d43869c	0.047735795
104	0xbd814eb6	-0.06313841
105	0xbe5eb286	-0.21747789
106	0x3e2ce740	0.1688509
107	0x3d81bc11	0.06334699
108	0xbe0fb6c0	-0.14034557
109	0x3e70073f	0.23440264
110	0xbda00fcb	-0.07815512
111	0xbdb4d177	-0.08829015
112	0xbd8ddd9b	-0.069270335
113	0x3e54ba61	0.20774223
114	0x3be5a8fc	0.00700867
115	0xbddc17e7	-0.107467465
116	0xbe01327e	-0.12616917
117	0xbd9859d5	-0.07439009
118	0x3e49c900	0.19705582
119	0x3e077120	0.13226748
120	0x3e4b6a54	0.1986478
121	0xbe63edbe	-0.2225866
122	0x3d489d20	0.04897797
123	0x3a94f0ae	0.0011363232
124	0xbe651288	-0.2237035
125	0xbc0300ff	-0.007995843
126	0x3dcde6ed	0.10053811
127	0xbdc15941	-0.09440852
128	0x3d9c397c	0.07628152
129	0xbe497c58	-0.1967634
130	0xbe389cb1	-0.18028523
131	0x3dc10daf	0.09426438
132	0xbda9fcf9	-0.08300204
133	0xbdef78d7	-0.1169297
134	0x3e603bab	0.21897762
135	0x3e65421b	0.22388498
136	0xbdc8d124	-0.098055154
137	0xbd80bbb0	-0.062857985
138	0xbd084729	-0.03327099
139	0xbd233bff	-0.03985214
140	0xbe5b4af2	-0.21415308
141	0xbe6c64e1	-0.23085357
142	0x3de5022c	0.11182055
143	0xbd977856	-0.07395999
144	0xbdffbb2e	-0.124868736
145	0xbc964b47	-0.018346442
146	0xbcb13b8e	-0.021634843
147	0x3d83cfe3	0.064361356
148	0xbdb101fd	-0.08642957
149	0xbdfe1994	-0.124072224
150	0xbd8d231f	-0.068914644
151	0xbdeb3275	-0.11484233
152	0x3e0291f3	0.12750988
153	0x3e700982	0.23441127
154	0x3e287252	0.1644986
155	0x3df68fdb	0.12039157
156	0x3e5a195f	0.21298741
157	0x3d43dc1b	0.04781733
158	0x3e678d19	0.22612418
159	0xbe2f018a	-0.17090431
160	0xbe3bc368	-0.1833626
161	0xbe6bc3f7	-0.23023973
162	0x3e6b7941	0.22995473
163	0x3d96c2a6	0.07361345
164	0x3e0ca141	0.13733388
165	0x3b01e2a3	0.0019818924
166	0x3d04720e	0.032335334
167	0x3da70b91	0.08156503
168	0x3e3b2e3f	0.1827936
169	0xbbef3477	-0.0072999555
170	0xbe286c05	-0.16447456
171	0x3e00f74f	0.1259434
172	0xbe64f740	-0.22359943
173	0xbdd91f3e	-0.10601662
174	0xbe0e0ee6	-0.13872871
175	0x3e695714	0.22787124
176	0x3cb6b23d	0.022301788
177	0xbe6fc0a2	-0.23413327
178	0xbe6a2598	-0.22865903
179	0x3dce01d7	0.10058945
180	0x3e43f45d	0.19136186
181	0x3dc9e60d	0.09858332
182	0x3db58847	0.088638835
183	0x3d87e0b1	0.06634653
184	0x3e57495b	0.21024077
185	0xbe32a6ab	-0.17446391
186	0xbdcacca1	-0.09902311
187	0xbdff9ff4	-0.124816805
188	0x3e03041c	0.12794536
189	0x3c43951d	0.011937407
190	0x3e60fb36	0.2197083
191	0xbe544cda	-0.20732442
192	0xbdb5ff8a	-0.08886631
193	0xbdc18f8f	-0.0945121
194	0xbd2eefe6	-0.042709254
195	0x3e02a4d7	0.12758194
196	0x3dd0a992	0.10188593
197	0xbe719b7e	-0.23594472
198	0xbda042f5	-0.07825271
199	0xbdb0b195	-0.08627621
200	0xbe4ff0d2	-0.2030671
201	0xbe365c6d	-0.17808695
202	0x3e49f4f3	0.19722347
203	0x3da5a36f	0.08087813
204	0x3e49fedc	0.19726127
205	0xbd681594	-0.056661204
206	0x3e2000e3	0.15625338
207	0x3de732ea	0.11289008
208	0x3e178e0b	0.14800279
209	0xbd2b78c3	-0.041863214
210	0xbe5b4988	-0.21414769
211	0xbda76714	-0.081739575
212	0xbe621389	-0.22077765
213	0xbded2198	-0.11578673
214	0x3da1f012	0.07907118
215	0xbe234a97	-0.15946423
216	0xbdf4652a	-0.11933358
217	0xbdb1d4c4	-0.0868316
218	0x3e327fac	0.17431515
219	0xbcaa77d9	-0.020809101
220	0xbe5db9e0	-0.21652937
221	0x3d93864a	0.07203348
222	0xbe5fca0b	-0.21854417
223	0x3e1c0f60	0.1524024
224	0xbe5467ed	-0.2074277
225	0x3e11d9ff	0.14243315
226	0xbe46c60a	-0.19411483
227	0x3e176375	0.14784034
228	0xbe00bbf0	-0.12571692
229	0x3e6b87fd	0.23001094
230	0x3d7acb2c	0.061228916
231	0xbd81465c	-0.06312248
232	0xbe431a51	-0.19053008
233	0x3dd62a2a	0.10457261
234	0x3daf5a9d	0.08562205
235	0xbd5e7eef	-0.054320272
236	0xbe539191	-0.20660998
237	0x3e2029db	0.15640967
238	0x3e667795	0.22506554
239	0xbcff38ae	-0.031154957
240	0x3c94d1d3	0.018166458
241	0x3e672ca4	0.22575623
242	0x3e3d1b6a	0.18467489
243	0xbdc18b52	-0.09450401
244	0x3e6ded2c	0.23235005
245	0xbbc0ad16	-0.0058800085
246	0x3d58ffc9	0.05297831
247	0x3dd7e6bf	0.10542058
248	0xbe13a505	-0.14418419
249	0xbdd11f21	-0.102110155
250	0x3e2f2526	0.17104015
251	0x3de22c2f	0.110435836
252	0x3d153269	0.036425028
253	0xbe5abf3b	-0.21362011
254	0x3e5f0ef0	0.21783042
255	0xbe09bc33	-0.13450699

gen.conv1.conv.bias f4 [64]
0	0xbe15a2fa	-0.14612952
1	0xbd8edb34	-0.069754034
2	0xbc8f9487	-0.017526878
3	0xbdd20f26	-0.102567956
4	0x3e321b57	0.17393242
5	0xbd069274	-0.032854512
6	0xbc1ae356	-0.009453615
7	0x3d9b0036	0.075683996
8	0x3d292a02	0.041299827
9	0xbdf79ca0	-0.12090421
10	0x3d8fc6bb	0.07020327
11	0x3e6e0c93	0.23246984
12	0x3e3f9ea7	0.18712865
13	0xbdafef12	-0.08590521
14	0xbdf6ac68	-0.12044603
15	0x3e60ccc4	0.21953112
16	0x3e0959ae	0.13413116
17	0x3d31dc23	0.04342283
18	0x3e6e686c	0.23282021
19	0xbe12287d	-0.14273258
20	0xbe3c65f4	-0.18398267
21	0xbe532c4b	-0.20622365
22	0xbd4e4d9d	-0.050366987
23	0x3cb69bd2	0.022291098
24	0xbd35c746	-0.044379495
25	0xbd278a9d	-0.040903676
26	0xbd3bb30e	-0.045825057
27	0x3e53b85f	0.206758
28	0xbdad8bcc	-0.0847393
29	0xbd97d08b	-0.07412823
30	0x3e025ce2	0.12730744
31	0xbe0816dc	-0.1328997
32	0x3e07bc47	0.13255416
33	0x3e37959f	0.1792817
34	0xbdbca19e	-0.092105135
35	0x3e04129e	0.12897727
36	0xbd4dbc3a	-0.050228335
37	0xbdbc0e8e	-0.091824636
38	0x3dfc96b8	0.12333435
39	0x3e3a4ade	0.18192622
40	0xbdcd3428	-0.10019714
41	0xbe6d1487	-0.23152362
42	0xbdbc3fca	-0.09191854
43	0xbd14e750	-0.03635341
44	0xbd7948d4	-0.06086047
45	0x3c08d79f	0.008352189
46	0x3daeb6d0	0.085309625
47	0xbd59f46a	-0.053211607
48	0x3ce6608f	0.028122215
49	0x3d908ce5	0.070581235
50	0xbdb02841	-0.08601428
51	0x3e48d2dc	0.19611686
52	0x3e41e248	0.18933976
53	0x3da2fca4	0.079583436
54	0xbe408f52	-0.18804672
55	0xbdf41b08	-0.11919218
56	0xbe216faa	-0.15765253
57	0xbe11f9fe	-0.1425552
58	0xbe53cf03	-0.20684437
59	0xbe3a5389	-0.18195929
60	0xbe713106	-0.23553857
61	0x3cbd98b5	0.023144105
62	0xbe035d4f	-0.12828563
63	0x3e49d2eb	0.19709365

gen.conv1.norm.weight f4 [64]
0	0x3f7f9d12	0.99849045
1	0x3f807d8a	1.0038311
2	0x3f7ff998	0.99990225
3	0x3f802c6c	1.0013556
4	0x3f7fe009	0.99951226
5	0x3f7fa5a8	0.99862146
6	0x3f7ff94a	0.9998976
7	0x3f800be9	1.0003635
8	0x3f7f54c4	0.9973872
9	0x3f7f81b8	0.9980731
10	0x3f7ff1a3	0.99978083
11	0x3f8041d3	1.0020088
12	0x3f7f6ade	0.9977244
13	0x3f7f6277	0.9975962
14	0x3f801958	1.0007734
15	0x3f7fa987	0.99868053
16	0x3f7fe030	0.9995146
17	0x3f7fff0d	0.9999855
18	0x3f7fc571	0.99910647
19	0x3f7f7244	0.9978373
20	0x3f804f34	1.0024171
21	0x3f8014bb	1.0006326
22	0x3f7ff7f3	0.99987715
23	0x3f7fbd4f	0.99898237
24	0x3f807e3b	1.0038522
25	0x3f80cd41	1.0062639
26	0x3f7fe8ee	0.999648
27	0x3f7f060e	0.99618614
28	0x3f7fe140	0.9995308
29	0x3f7fbca5	0.99897224
30	0x3f803ad7	1.0017956
31	0x3f800f01	1.0004579
32	0x3f7f496f	0.99721426
33	0x3f7f8954	0.9981892
34	0x3f8049ca	1.0022519
35	0x3f7ec0d7	0.99513
36	0x3f808855	1.0041605
37	0x3f7ff63a	0.99985087
38	0x3f80146f	1.0006236
39	0x3f809e7f	1.0048369
40	0x3f800be3	1.0003628
41	0x3f801191	1.0005361
42	0x3f7fa8b2	0.99866784
43	0x3f7fc33e	0.9990729
44	0x3f803545	1.0016257
45	0x3f7feede	0.9997386
46	0x3f7fa3eb	0.99859494
47	0x3f7f81b3	0.9980728
48	0x3f7ff6f6	0.9998621
49	0x3f800312	1.0000937
50	0x3f7f264b	0.99667805
51	0x3f7f7e6e	0.9980229
52	0x3f8018f0	1.000761
53	0x3f7fa27d	0.9985731
54	0x3f7ff16d	0.9997776
55	0x3f7fd33b	0.9993169
56	0x3f7f76b6	0.99790514
57	0x3f7f666b	0.9976565
58	0x3f80438f	1.0020617
59	0x3f801d13	1.0008873
60	0x3f7fdccf	0.999463
61	0x3f7fb906	0.998917
62	0x3f7ff52b	0.9998347
63	0x3f80497f	1.0022429

gen.conv1.norm.bias f4 [64]
0	0xba3688d1	-0.0006963136
1	0x3b407115	0.0029364277
2	0xb96e02e9	-0.00022698533
3	0x3a6433f7	0.0008705253
4	0xb9818d54	-0.00024710095
5	0xba2d3db9	-0.00066086237
6	0x39a4ec12	0.00031456404
7	0x39d456ec	0.00040500553
8	0xbb57e64f	-0.003294367
9	0xbaa48c67	-0.001255405
10	0xb9c0b827	-0.00036758298
11	0x3b0def6d	0.0021657601
12	0xba416abd	-0.0007378271
13	0xbab93453	-0.0014129974
14	0x39467d5b	0.0001892945
15	0xba6c089d	-0.0009003969
16	0xba493abd	-0.0007676294
17	0x394177a5	0.00018450485
18	0xba36e414	-0.00069767353
19	0xbb18582f	-0.002324592
20	0x3b159576	0.0022824681
21	0x38a58fa0	7.894565e-05
22	0xb9003bb3	-0.00012229271
23	0xba6ee55d	-0.0009113157
24	0x3b17b168	0.0023146514
25	0x3bb10c65	0.005403089
26	0x3946d860	0.00018963357
27	0xbb0c2830	-0.0021386258
28	0xb91f25b1	-0.00015177463
29	0xba45ad32	-0.0007540762
30	0x3ac27376	0.0014835435
31	0x39808995	0.0002451657
32	0xbadc71d4	-0.0016818591
33	0xbaa52999	-0.0012600898
34	0x3b0581d0	0.0020371564
35	0xbb59afc5	-0.003321634
36	0x3b73a4df	0.0037177128
37	0x3881352a	6.161102e-05
38	0x3a4f6a5b	0.00079122715
39	0x3b41db79	0.0029580279
40	0xb8289a26	-4.0197883e-05
41	0xba19af38	-0.00058625964
42	0xba17b10d	-0.00057865755
43	0xba159c27	-0.00057071674
44	0x3a4ffb3d	0.0007933861
45	0xb89bec29	-7.434964e-05
46	0xba78c0a4	-0.0009489155
47	0xbab3a5b1	-0.0013705996
48	0xb9fb825b	-0.00047971573
49	0xb9df2683	-0.00042562568
50	0xbb09c0d5	-0.0021019478
51	0xbad437bb	-0.0016190925
52	0xb9353ec1	-0.00017284883
53	0xba73551a	-0.00092823955
54	0xba71dc69	-0.0009226264
55	0xba2ce7a2	-0.0006595795
56	0xbad4ab20	-0.0016225316
57	0xbabcbf38	-0.0014400249
58	0x3af24721	0.0018484333
59	0x3a896bd8	0.001048441
60	0xba3d97ce	-0.00072323985
61	0xba1c160d	-0.00059542136
62	0xb8939c19	-7.038582e-05
63	0x3af188bf	0.0018427594

gen.conv1.norm.running_mean f4 [64]
0	0xbdb17d8c	-0.08666524
1	0xbef42e2b	-0.47691473
2	0xbdbf1d78	-0.093317926
3	0xbeec0f61	-0.46105483
4	0x3e857078	0.2606237
5	0xbced5c1f	-0.02897459
6	0xbd203250	-0.03911048
7	0x3ea6a355	0.32546487
8	0xbe5858a1	-0.21127559
9	0x3e1ac135	0.15112765
10	0x3e4796f9	0.19491185
11	0x3f0738b1	0.5282088
12	0x3df4ce4b	0.1195341
13	0xbe8f9dfa	-0.28050214
14	0x3da57ef5	0.08080856
15	0xbd4413b9	-0.04787037
16	0x3d9f8134	0.077883154
17	0x3cd61fad	0.026138151
18	0x3ec5d754	0.38640845
19	0xbeced26f	-0.40394923
20	0xbf17d284	-0.59305596
21	0xbea54cf2	-0.32285267
22	0xbe6acbe8	-0.22929347
23	0xbbefe58d	-0.0073210658
24	0xbea0dab5	-0.3141686
25	0x3ef0854c	0.46976697
26	0x3e6c275d	0.23061891
27	0x3e21cd91	0.15801074
28	0xbd7c98ff	-0.061669346
29	0xbdb13e2c	-0.086544365
30	0x3e7cd174	0.24689275
31	0xbe8b1f74	-0.27172434
32	0xbeae7f2a	-0.34081393
33	0x3efae9e1	0.4900656
34	0x3da58244	0.08081487
35	0xbd6f9f52	-0.05850155
36	0x3eab2a9a	0.3343094
37	0xbf3252eb	-0.6965777
38	0xbdb23550	-0.08701575
39	0xbe511e08	-0.20421612
40	0xbe9db14a	-0.30799323
41	0xbe366fd9	-0.17816104
42	0xbda9c888	-0.082902014
43	0x3cf332f4	0.029687382
44	0xbe94f721	-0.29094794
45	0x3e9d9949	0.3078101
46	0xbd4eaf4c	-0.050460145
47	0xbd36d50b	-0.044636767
48	0xbe72b319	-0.23701133
49	0xbebbeb85	-0.36703125
50	0x3d43e95f	0.047829982
51	0x3e8c5af6	0.27413148
52	0xbe7d4cfa	-0.24736395
53	0x3e734a7d	0.23758884
54	0xbe7aef3a	-0.2450532
55	0x3e4c2e06	0.19939432
56	0xbe75fbc8	-0.24021828
57	0xbdd2ea48	-0.10298592
58	0xbdfc8999	-0.12330932
59	0x3e939af5	0.2882916
60	0xbea3312d	-0.31873456
61	0x3e1619c6	0.1465827
62	0x3e06b5b3	0.1315525
63	0x3f09cb3c	0.53825736

gen.conv1.norm.running_var f4 [64]
0	0x3da47b39	0.08031315
1	0x3e7703c8	0.24122536
2	0x3d835a17	0.06413668
3	0x3e30e394	0.17274314
4	0x3d684c24	0.05671324
5	0x3d82aa65	0.063801564
6	0x3da680e2	0.08130051
7	0x3e1736aa	0.14766946
8	0x3e4efc90	0.20213532
9	0x3e0d135b	0.13776915
10	0x3dc4e771	0.096144564
11	0x3e38bb7c	0.1804027
12	0x3dba778a	0.091048315
13	0x3df69a23	0.12041118
14	0x3dfde6cf	0.12397539
15	0x3e0b3d03	0.13597493
16	0x3da2b193	0.07944026
17	0x3ddf36c3	0.10899117
18	0x3dbac53b	0.0911965
19	0x3e1b761b	0.15181772
20	0x3e6fadaa	0.23406091
21	0x3dfa77f9	0.12229914
22	0x3dc79411	0.09745038
23	0x3da82491	0.082100995
24	0x3e01495b	0.12625639
25	0x3ea5e9ca	0.3240493
26	0x3e073f9c	0.13207859
27	0x3d79b8c6	0.06096723
28	0x3dc2d8d1	0.09514011
29	0x3db01be4	0.0859907
30	0x3da892f1	0.08231152
31	0x3dc488cc	0.095964044
32	0x3ea9269a	0.33037263
33	0x3e1eb9e9	0.15500607
34	0x3d9d57c7	0.07682758
35	0x3d98dc1e	0.07463859
36	0x3e8255f8	0.25456214
37	0x3ee97e17	0.4560401
38	0x3dcdd878	0.10051054
39	0x3e617f0e	0.22021124
40	0x3e265649	0.16243853
41	0x3d84c17e	0.06482218
42	0x3da7b31b	0.081884585
43	0x3d8d533a	0.0690064
44	0x3e1bbdca	0.15209118
45	0x3e1a2de9	0.15056576
46	0x3de000bd	0.10937641
47	0x3d91d2de	0.07120298
48	0x3e1abfc7	0.1511222
49	0x3e88039c	0.26565254
50	0x3dd781ce	0.10522805
51	0x3d9910f1	0.074739344
52	0x3e9540d2	0.29151016
53	0x3d99a1ad	0.0750154
54	0x3dbcb827	0.09214812
55	0x3e208285	0.15674789
56	0x3e1e07d0	0.15432668
57	0x3daaa026	0.08331327
58	0x3da411a8	0.0801118
59	0x3e932646	0.28740138
60	0x3d9a1455	0.07523409
61	0x3db3b14b	0.0877405
62	0x3dcf6d0d	0.10128222
63	0x3e1fa6e1	0.15591003

gen.conv2.conv.weight f4 [32, 64, 3, 3]
0	0x3bf2d2a6	0.007410365
1	0x3c8bb957	0.01705615
2	0xbd1dce34	-0.03852673
3	0x3c2869ea	0.010279158
4	0xbd25b9db	-0.04046045
5	0x3cbe130f	0.023202447
6	0xba2eb88a	-0.00066650717
7	0x3c8e1572	0.01734421
8	0x3c817188	0.015801206
9	0xbc28fd27	-0.0103142625
10	0xbd00162a	-0.031271137
11	0x3cfe0c37	0.031011684
12	0xbcdba029	-0.026809769
13	0x3c0fb953	0.008772212
14	0xba510424	-0.0007973334
15	0xbabc3c74	-0.0014361278
16	0x3b35471d	0.0027660795
17	0x3c73bb0e	0.01487614
18	0x3cea0e14	0.028571166
19	0xbc9cc69e	-0.019137677
20	0xbc75d9c7	-0.015005535
21	0xbd0eff53	-0.034911465
22	0x3c9cc386	0.019136202
23	0xbc51c0e2	-0.0128023345
24	0xbce47dd6	-0.027892035
25	0x3d1d94a6	0.03847184
26	0x3d0288bc	0.03186868
27	0xbd16c17d	-0.03680562
28	0xbcf54134	-0.029938318
29	0xbd31f331	-0.043444816
30	0x3c9ebe55	0.019377867
31	0x3cc40836	0.023929697
32	0x3ca8ee27	0.020621372
33	0xbcd5f9b8	-0.026120052
34	0xbc6bc53d	-0.014390287
35	0xbcab9215	-0.02094368
36	0x3c95b220	0.018273413
37	0xbbe5583b	-0.0069990433
38	0xbce1487f	-0.02750039
39	0xbc9081be	-0.01763999
40	0x3caa84a2	0.020815197
41	0x3b6cff53	0.0036162927
42	0xbce1ed40	-0.02757895
43	0x3cf49ee6	0.029860925
44	0xbcc4ce98	-0.024024293
45	0x3cbe4c9d	0.023229891
46	0xbcf21b80	-0.029554129
47	0x3d0e96dc	0.03481184
48	0x3c1b5256	0.00948008
49	0x3cb3d802	0.021953586
50	0x3c1b51f8	0.009479992
51	0xbc4ae723	-0.012384209
52	0xbd1b8f35	-0.03797837
53	0xbc090d25	-0.00836495
54	0xbbf0a210	-0.007343538
55	0xbcd97e66	-0.02654953
56	0x3c803594	0.015650548
57	0xbc777653	-0.015103894
58	0x3c2e1241	0.010624469
59	0x3d042af9	0.032267544
60	0x3cb9bcb3	0.022672987
61	0x3ca2973d	0.019847507
62	0xbb6cb822	-0.0036120494
63	0x3ca837e3	0.020534461
64	0xbc0c2f5f	-0.008556216
65	0x3d10b932	0.035332866
66	0xbca940b7	-0.020660741
67	0x3cd88d93	0.026434695
68	0xbd232a1a	-0.039835073
69	0x3caa1874	0.020763613
70	0xbc52234a	-0.012825796
71	0xbc8ba3d2	-0.017045889
72	0x3d1c5eae	0.03817623
73	0xbc0d24e6	-0.008614754
74	0x3d0ac4fe	0.033879273
75	0xbcaba61e	-0.020953234
76	0x3d14029f	0.036135312
77	0xba40130a	-0.0007327056
78	0x3bb85b0e	0.005626089
79	0x3d192605	0.037389774
80	0xbcc7f1f0	-0.024407357
81	0xbd02713f	-0.03184628
82	0x3c9999f7	0.018750174
83	0x3d20f287	0.039293792
84	0xbcf04341	-0.029328944
85	0x3bfc1856	0.0076933308
86	0xbc87f30c	-0.016595386
87	0x3d1e5a31	0.038660232
88	0x3cd0a0d8	0.025467321
89	0xbb4b474c	-0.0031017838
90	0xbd01ef3b	-0.03172229
91	0x3c1ff6a8	0.009763397
92	0xba2505d4	-0.0006295119
93	0xbc2000a6	-0.00976578
94	0xbd246c78	-0.040142506
95	0xbba212a8	-0.0049460717
96	0xbd111deb	-0.035428923
97	0x3c58210a	0.013191471
98	0xbd1fae68	-0.038984686
99	0xbb61185a	-0.003434679
100	0x3cb231dd	0.021752292
101	0x3c985181	0.018593552
102	0x3c28434a	0.010269949
103	0x3c34b2fd	0.011029002
104	0x3c96c492	0.018404279
105	0x3cdfe1f9	0.027329432
106	0xbd130917	-0.03589734
107	0x3b19c21b	0.0023461643
108	0xbbc558ab	-0.006022533
109	0xbc7a21f0	-0.01526688
110	0xbb9a1bad	-0.0047030062
111	0xbbee0282	-0.0072634825
112	0xbd28564d	-0.041097928
113	0xbd1dda7b	-0.038538437
114	0x3c41929e	0.011814741
115	0xbcb9f1d2	-0.022698317
116	0x3d2045a5	0.03912892
117	0xbcc4708f	-0.023979453
118	0x3cd364ae	0.025804844
119	0xbacd6763	-0.001567107
120	0xbc7e8500	-0.015534639
121	0xbc5ac901	-0.013353587
122	0xbd0f9ea1	-0.03506339
123	0xbceb4c5d	-0.028722936
124	0xbcc370fb	-0.023857584
125	0x3937ab61	0.00017516084
126	0xbccf4729	-0.025302486
127	0x3c4b02b8	0.012390785
128	0xbb0b4b35	-0.0021254544
129	0xbbc6ecaa	-0.006070693
130	0xbbeba6ce	-0.0071915155
131	0xbc9bb6c7	-0.019008053
132	0x3cade3eb	0.021226844
133	0xbccff4bd	-0.025385255
134	0xbb986975	-0.0046512433
135	0x3d014b44	0.03156592
136	0x3c8bec8d	0.01708057
137	0x3d02e3b6	0.031955443
138	0x3cba04ad	0.022707308
139	0xbc65e5c4	-0.014031831
140	0x3cd086a3	0.025454825
141	0xbb64fce6	-0.0034940778
142	0xbccf950a	-0.025339622
143	0x3cc6a3c9	0.02424802
144	0xbcf974ee	-0.030451264
145	0xbc9b6500	-0.018969059
146	0x3bd7cfc7	0.0065860483
147	0xbcba3368	-0.02272959
148	0xbd096bf1	-0.033550207
149	0xbcb60de3	-0.022223419
150	0x3cedbc8f	0.029020576
151	0xbb341d06	-0.002748312
152	0x3ce5431c	0.027986102
153	0x3c37aca4	0.011210594
154	0xbd0d3a57	-0.034479465
155	0x3ccf18db	0.025280407
156	0x39b5a504	0.00034645956
157	0xbb83bf06	-0.0040205745
158	0xbc93ff75	-0.018066147
159	0xbc9191cb	-0.017769715
160	0xbd06e7ab	-0.03293578
161	0xbb91f408	-0.0044541396
162	0x3c5b99e5	0.0134033905
163	0xbc00a10e	-0.007850898
164	0x3d15f070	0.036606252
165	0xbc99f9da	-0.018795896
166	0x3c99d890	0.018780023
167	0xbc664370	-0.014054164
168	0x3c146f0d	0.00905968
169	0xbc345e61	-0.01100883
170	0x3cd57290	0.026055604
171	0x3c9ea1c6	0.019364249
172	0xbb6fde7b	-0.0036601115
173	0x3c8bab1a	0.017049361
174	0x3d17784b	0.036979955
175	0x3d0d8b0c	0.034556434
176	0xbc4cb8a4	-0.012495194
177	0x3cca7bc6	0.024717223
178	0x3b013450	0.0019715019
179	0x3d1336d7	0.03594097
180	0x3ce3643a	0.027757753
181	0x3b91b9a0	0.004447177
182	0x3d1c287a	0.03812454
183	0xbd12bca3	-0.03582443
184	0x3d01ed67	0.031720545
185	0xbcea9957	-0.028637571
186	0x3c976ab4	0.018483497
187	0x3c340345	0.010987108
188	0x3c2d32ad	0.010571164
189	0xbd106089	-0.035248313
190	0x3d08d7f0	0.03340906
191	0xba4d3aca	-0.00078288896
192	0x3bd95266	0.006632137
193	0xbb8ea156	-0.004352729
194	0xbc4a1876	-0.0123349335
195	0xbb97816d	-0.004623583
196	0xbc10a520	-0.008828431
197	0x3c6656bc	0.014058765
198	0xbd15b463	-0.036548983
199	0xbc848fe3	-0.016181892
200	0x3d19e5a1	0.037572507
201	0xbc5f2bdd	-0.013621298
202	0xbc89b1a3	-0.016808337
203	0x3d0d3050	0.034469903
204	0x3c108102	0.00881982
205	0x3b293fb4	0.0025825324
206	0x3ac03682	0.0014664682
207	0xbc8bf7c6	-0.017085921
208	0x3ca941c1	0.020661237
209	0x3cd9d6e5	0.026591728
210	0xbc93c0ed	-0.01803633
211	0xbc966ed0	-0.018363386
212	0x3c372235	0.011177589
213	0xbcd8ecab	-0.02648004
214	0xbb9e6b66	-0.0048345802
215	0xbc2ca4b1	-0.010537312
216	0x3d02aa77	0.03190085
217	0xbc319764	-0.010839317
218	0xbb315295	-0.002705728
219	0xbd16eb61	-0.03684557
220	0xbc08197b	-0.008306856
221	0x3ca9f6f6	0.020747643
222	0xbbcec2da	-0.006309849
223	0x3ce0f3f9	0.027460085
224	0x3cc2239a	0.023698617
225	0x3d334c20	0.04377377
226	0x3c5bfa55	0.013426383
227	0x3d19f657	0.037588444
228	0xbc91fe6d	-0.017821515
229	0x3beb93a0	0.007189229
230	0xbd216a9e	-0.03940832
231	0xbd20dab4	-0.03927107
232	0xbcd5c1e3	-0.026093429
233	0x3cbe946b	0.02326413
234	0x3ceddcca	0.029035944
235	0xbbc6502a	-0.006052037
236	0xbd1b10e9	-0.037857924
237	0x3d21ec17	0.039531793
238	0xbd0ee111	-0.03488261
239	0x3d0f7192	0.03502042
240	0x3d0c0853	0.034187626
241	0xbaa2fcec	-0.0012434996
242	0xbd1f1a00	-0.038843155
243	0x3b6edf86	0.0036449148
244	0x3c7cb377	0.015423647
245	0x3ccf7be8	0.025327638
246	0xbc4fcc30	-0.012682959
247	0xbca0731b	-0.019586137
248	0xbc96a7a1	-0.018390479
249	0xbc68c4b6	-0.014207056
250	0x3c8257d7	0.015911026
251	0x3d0f83fc	0.03503798
252	0x3d0d3a35	0.03447934
253	0x3be37341	0.0069412296
254	0x3d023124	0.031785145
255	0x3ca8af5b	0.020591429

gen.conv2.conv.bias f4 [32]
0	0x3c0f8bf7	0.008761398
1	0x3ccfd70a	0.025371093
2	0xbd001373	-0.03126855
3	0xbbeb4208	-0.0071795024
4	0xbd22367f	-0.039602753
5	0x3c81ce6c	0.0158455
6	0xbca1cf4a	-0.019752163
7	0xb9d1b4b1	-0.00039998212
8	0xba1dfbab	-0.0006026576
9	0xbce3e9ef	-0.02782151
10	0xbb3b030c	-0.0028535752
11	0xbcda1d08	-0.026625171
12	0x3bab801f	0.005233779
13	0x3d291669	0.041281138
14	0x3cf028ff	0.029316423
15	0x3b3afed7	0.0028533244
16	0xbb873826	-0.0041265665
17	0xbd2112d8	-0.03932461
18	0x3d0b93d9	0.034076545
19	0xbc8098bd	-0.015697831
20	0x3b177f49	0.002311664
21	0x3d0e3c55	0.034725506
22	0xbcd4227c	-0.02589535
23	0xbcc39fb2	-0.02387986
24	0x3cfb7a58	0.030697986
25	0x3c3256f2	0.010884987
26	0x3d03bca9	0.032162342
27	0x3a260e84	0.00063345605
28	0xbd1925b4	-0.037389472
29	0x3d07e856	0.033180557
30	0xbcacf5bb	-0.021113267
31	0x3baa1eaf	0.005191646

gen.conv2.norm.weight f4 [32]
0	0x3f7fcd0b	0.99922246
1	0x3f80aade	1.0052145
2	0x3f7ff84d	0.9998825
3	0x3f801108	1.0005198
4	0x3f8065e5	1.0031096
5	0x3f7f4417	0.9971327
6	0x3f80775f	1.0036429
7	0x3f7fa702	0.9986421
8	0x3f7f144d	0.9964035
9	0x3f7fda60	0.9994259
10	0x3f7f0244	0.9961283
11	0x3f80390c	1.0017409
12	0x3f803cf0	1.0018597
13	0x3f7f8268	0.9980836
14	0x3f7ff270	0.99979305
15	0x3f805afb	1.0027765
16	0x3f80238f	1.0010852
17	0x3f80751a	1.0035737
18	0x3f7f3cae	0.99701965
19	0x3f7fbeda	0.9990059
20	0x3f802caf	1.0013636
21	0x3f7fffce	0.999997
22	0x3f801987	1.000779
23	0x3f80821a	1.0039704
24	0x3f7f54dd	0.99738866
25	0x3f7fd7ac	0.99938464
26	0x3f8020bf	1.0009993
27	0x3f7ec32a	0.99516547
28	0x3f80116f	1.000532
29	0x3f7f4103	0.99708575
30	0x3f7fb90e	0.99891746
31	0x3f7f8fb5	0.99828655

gen.conv2.norm.bias f4 [32]
0	0x3b122cbf	0.0022304503
1	0x3b81e30c	0.0039638337
2	0xba38578d	-0.0007032089
3	0x3abc21f9	0.0014353386
4	0x3b334707	0.0027355568
5	0xbaab207b	-0.0013055945
6	0x3b5c0688	0.003357323
7	0x3a68cf50	0.00088809896
8	0xbade42e3	-0.001695719
9	0x3a533c22	0.0008057972
10	0xbb566c34	-0.0032718303
11	0x3b103212	0.00220025
12	0x3aead1af	0.0017915274
13	0x3aa83077	0.0012831826
14	0x3b445175	0.0029955779
15	0x3a7be4ac	0.0009608965
16	0x3b3fdca8	0.0029275808
17	0x3b19794e	0.002341825
18	0xbb342b83	-0.0027491755
19	0xb89c2071	-7.444702e-05
20	0xbb175dfd	-0.0023096793
21	0x3b4064ef	0.0029357036
22	0x3b407827	0.0029368491
23	0x3b74442e	0.0037272084
24	0x3969f2a8	0.00022311008
25	0x3b0b41fe	0.0021249051
26	0xbad6f1e4	-0.0016398993
27	0xbb42adc0	-0.0029705614
28	0x3a73ded7	0.000930292
29	0xbaee5e8f	-0.001818614
30	0x3b0c3dcb	0.0021399136
31	0x39630b5a	0.00021652636

gen.conv2.norm.running_mean f4 [32]
0	0x3d0ba20d	0.03409009
1	0xbe8874a5	-0.26651493
2	0xbe79ced2	-0.24395302
3	0x3e80e908	0.2517779
4	0xbdc970c0	-0.098359585
5	0x3dd40459	0.10352392
6	0xbdd2450e	-0.102670774
7	0x3d55e556	0.052220665
8	0x3e89cc7c	0.26913822
9	0xbd792482	-0.060825832
10	0xbeb5ff45	-0.35546318
11	0x3d17746d	0.036976267
12	0xbd869b09	-0.06572539
13	0xbc356127	-0.011070526
14	0xbe102647	-0.14077102
15	0xbd60e3f6	-0.0549049
16	0x3dac1a59	0.08403463
17	0xbac4d21b	-0.001501623
18	0x3dfe61d0	0.12421
19	0xbe1ed382	-0.15510371
20	0x3e6b1d92	0.22960499
21	0x3e09ccc9	0.13457026
22	0xbeb07a11	-0.3446813
23	0x3d5ed0f3	0.05439849
24	0x3ea2ea94	0.31819594
25	0x3e13d9c2	0.14438537
26	0xbe993123	-0.299203
27	0x3e16bc00	0.14720154
28	0xbec7d30a	-0.39028198
29	0xbe8ff0cd	-0.28113404
30	0xbde110fa	-0.10989566
31	0x3dbd331d	0.09238265

gen.conv2.norm.running_var f4 [32]
0	0x3e9c4ef8	0.30528998
1	0x3e929177	0.28626606
2	0x3ebf1627	0.37321588
3	0x3ec907b8	0.392637
4	0x3eb295a7	0.348798
5	0x3e7eb4ca	0.24873653
6	0x3ed78363	0.42092428
7	0x3e9783b3	0.29592666
8	0x3e9b3285	0.3031198
9	0x3e89edba	0.26939183
10	0x3eb652f7	0.35610172
11	0x3e9c84b6	0.3057
12	0x3ebe3633	0.37150726
13	0x3e675f7a	0.22595015
14	0x3e81b860	0.2533598
15	0x3eb16bc7	0.3465254
16	0x3e6fec42	0.23429969
17	0x3ed29abf	0.41133687
18	0x3e821418	0.25405955
19	0x3eba50d1	0.36389783
20	0x3edcb134	0.43103945
21	0x3e7bd10a	0.24591461
22	0x3ee4d31d	0.44692317
23	0x3e8bd18b	0.27308306
24	0x3e633da4	0.22191483
25	0x3e9e27c6	0.3088972
26	0x3ec7a852	0.38995606
27	0x3f09c332	0.5381347
28	0x3f052edc	0.52024627
29	0x3e942d8e	0.28941005
30	0x3ea7f600	0.3280487
31	0x3e9f304f	0.31091544

gen.conv_transpose1.conv.weight f4 [32, 64, 3, 3]
0	0x3ccf7d82	0.025328401
1	0x3bc7b045	0.006094011
2	0xbc5dfba1	-0.013548763
3	0x3cd5683a	0.026050676
4	0x3c792fc5	0.015209143
5	0xbd165bc4	-0.03670861
6	0xbb5a0009	-0.003326418
7	0xbca31b2b	-0.019910416
8	0xbc77c9a4	-0.015123758
9	0x3d1421a5	0.0361649
10	0xbc923535	-0.017847637
11	0xbb6c1287	-0.0036021785
12	0xbd03684a	-0.03208188
13	0x3d0d8dba	0.03455899
14	0x3c8451d3	0.016152298
15	0x3c8393ba	0.016061652
16	0xbc3e80fc	-0.011627432
17	0x3ccdc9c3	0.025120622
18	0xbcf2f7b1	-0.029659124
19	0xbc89f2aa	-0.016839344
20	0x3cb65ab0	0.02226004
21	0x3b94fe72	0.004546934
22	0xbcc23b17	-0.023709817
23	0x3c2f6e89	0.010707506
24	0x3b879b3e	0.0041383794
25	0x3cb26d4d	0.021780634
26	0xbc6424ef	-0.013924821
27	0x3baa0dd4	0.0051896367
28	0x3cced7b0	0.025249332
29	0x3cbd0736	0.023074728
30	0xbcfbfe46	-0.030760895
31	0xbbecce47	-0.0072267386
32	0x3bf5e0c6	0.0075036017
33	0xbcbf4096	-0.023346227
34	0x3d167554	0.036732987
35	0x3be68917	0.0070353854
36	0xbd12ad72	-0.03580994
37	0x3c92cc1a	0.017919589
38	0xbc8fe68c	-0.017565988
39	0xbcd50a0f	-0.026005773
40	0x3be10495	0.0068670013
41	0x3c9bab70	0.019002646
42	0xbcce1512	-0.025156531
43	0xbc0a4555	-0.008439382
44	0xbcfb6bd2	-0.030691061
45	0x3b306f13	0.0026921674
46	0x3cfac7bb	0.030612817
47	0x3c9d1a70	0.019177645
48	0x3d289638	0.041158885
49	0x3d0c0172	0.034181066
50	0x3c49b817	0.012311957
51	0xbca150ce	-0.019691851
52	0xbb336906	-0.0027375831
53	0xbcd6d986	-0.02622677
54	0xbd1d0711	-0.038336817
55	0x3c96619d	0.018357093
56	0x3c046ff2	0.0080833305
57	0x3d2cf0b2	0.042221732
58	0xbc82f62c	-0.015986525
59	0xbbdb4cb9	-0.0066924957
60	0x3b41d17c	0.0029574325
61	0xbd1bcb78	-0.03803584
62	0xbcf0211f	-0.029312668
63	0x3c194ec8	0.009357162
64	0xbb6b8d23	-0.0035942278
65	0x3cdf0611	0.027224572
66	0x3bafddad	0.005367002
67	0xbcd92188	-0.026505247
68	0xbc1eee6b	-0.009700398
69	0xbbc5a725	-0.006031888
70	0xbd1ed2f0	-0.038775384
71	0xbb519ed1	-0.003198553
72	0x3c9ebce8	0.019377187
73	0x3bf0e82c	0.007351896
74	0xbcf5e5aa	-0.030016739
75	0xbc8b547e	-0.017008062
76	0xbcebbb33	-0.028775787
77	0x3d29877e	0.04138898
78	0x3cecfff7	0.028930647
79	0x3d102ba4	0.03519787
80	0x3cf3805f	0.029724298
81	0xbd12965b	-0.03578792
82	0xbd0fa86e	-0.035072736
83	0xbce3954c	-0.027781151
84	0xbc351c53	-0.011054116
85	0x3d06fe8f	0.03295761
86	0x3caa1804	0.020763405
87	0xbcc67297	-0.024224563
88	0xbd027c94	-0.03185709
89	0x3cbe7506	0.02324916
90	0xbc3946c3	-0.011308375
91	0x3cf5815c	0.02996891
92	0x3cd19d0c	0.025587581
93	0xbd166a38	-0.03672239
94	0xbc8db8b1	-0.017299982
95	0x3b8afb33	0.004241371
96	0xbc16498e	-0.00917281
97	0x3cb8fcee	0.022581544
98	0x3d135ca3	0.035977017
99	0x3d003644	0.03130175
100	0x3b9f7bd9	0.0048670587
101	0xbbe830a4	-0.0070858765
102	0xbd24b571	-0.0402121
103	0x3c22d10c	0.009937536
104	0xbc8b5473	-0.017008042
105	0xbca2ed6f	-0.019888608
106	0x3cd7f109	0.026360052
107	0x3c9302e4	0.017945714
108	0xbd00d0c8	-0.03144911
109	0x3d2186c1	0.039435152
110	0x3b6613a7	0.0035106929
111	0x3c980fbb	0.018562188
112	0x3c702271	0.014656649
113	0xbc93b733	-0.018031692
114	0x3cb95993	0.02262572
115	0x3c7a6760	0.015283436
116	0xbcc2704a	-0.023735184
117	0x3d04532a	0.032305874
118	0x3bf9bb8b	0.007621234
119	0xbcd9e84f	-0.026600031
120	0x3c813a52	0.01577488
121	0x3a2975ac	0.0006464373
122	0xbb9478b9	-0.004530993
123	0xbc564317	-0.013077519
124	0x3c12c07f	0.008957027
125	0x3bbefa86	0.0058282046
126	0x3d059ae1	0.032618407
127	0xbc9e9a4f	-0.01936069
128	0xba934a86	-0.001123742
129	0xbcca4887	-0.024692787
130	0x3d137378	0.03599879
131	0x3cccd8d5	0.025005737
132	0xbc75357b	-0.014966364
133	0xbbebcb2e	-0.0071958518
134	0xbcacea83	-0.021107918
135	0x3c7ac824	0.015306506
136	0x3b93234f	0.004490293
137	0xbcac16bd	-0.021006936
138	0xbd119689	-0.035543952
139	0x3cc88cbe	0.024481174
140	0x3c7b4608	0.015336521
141	0xbd1365bd	-0.035985697
142	0xbc62c0ab	-0.013839881
143	0xbc800a2a	-0.015629847
144	0x3b7e7bc6	0.00388311
145	0x3c294304	0.010330919
146	0x3ce36f7c	0.02776312
147	0xbc02eac7	-0.007990546
148	0x3cb51483	0.022104507
149	0x3bd808dc	0.006592853
150	0x3be64a9b	0.0070279366
151	0x3c5d4a95	0.013506551
152	0x3d0f9c0c	0.035060927
153	0x3d0dd351	0.034625355
154	0xbc980c27	-0.018560482
155	0xbc2d1fee	-0.010566695
156	0x3cc89940	0.024487138
157	0x3d052135	0.03250237
158	0xbd110b3b	-0.0354111
159	0x3ce3e5c6	0.027819525
160	0xba5b606e	-0.0008368556
161	0x39a66cfc	0.00031743187
162	0x3d22e7c8	0.039771825
163	0x3bd58ea2	0.0065172473
164	0xbd2051ef	-0.039140638
165	0x3c7d4ffd	0.015460965
166	0xbcc56d93	-0.0241001
167	0xbd1f755c	-0.038930282
168	0xbd1849e4	-0.037179843
169	0x3b895555	0.0041910806
170	0x3c9e0fe8	0.019294694
171	0x3ce92c12	0.028463397
172	0x3c16ae46	0.009196823
173	0xba8c2988	-0.001069353
174	0x3b5bdbfb	0.0033547867
175	0x3b0338c2	0.0020022844
176	0xbb58ac5b	-0.0033061716
177	0xbbacdf0e	-0.0052756136
178	0xbb14c5a9	-0.0022700822
179	0x3d26e145	0.040742178
180	0x3cbdee32	0.02318487
181	0xbc2336cd	-0.009961796
182	0xbd269523	-0.04066957
183	0xbc86fa7a	-0.016476858
184	0x3c441eba	0.011970216
185	0x3b05099b	0.0020299915
186	0xbbc9c9e3	-0.0061581
187	0x3c428e6d	0.011874777
188	0x3d191d44	0.037381425
189	0xbccfafb1	-0.02535233
190	0xbc2d90fd	-0.01059365
191	0x3cbc9a35	0.02302275
192	0x3cc7edb7	0.024405343
193	0xbcb32e1f	-0.021872578
194	0x3cd78a24	0.026310988
195	0xbcad8e1f	-0.021185933
196	0xbcf7239b	-0.030168345
197	0x3cedead6	0.029042643
198	0x3d30ebf2	0.043193765
199	0x3c9ea387	0.019365085
200	0x3d00d1cb	0.031450074
201	0x3c703e52	0.014663296
202	0x3d15f753	0.03661282
203	0xbca3bf1f	-0.019988595
204	0x3d21c33d	0.039492834
205	0x3d14a8c2	0.036293752
206	0x3d08f920	0.03344071
207	0x3c0dd6af	0.008657142
208	0x3ca07e55	0.01959149
209	0xbc989c85	-0.018629322
210	0xbd0c8a60	-0.034311652
211	0xbd2431ec	-0.04008667
212	0xbcd7f389	-0.026361244
213	0x3d0ebb97	0.03484687
214	0xbd2c26ac	-0.042029068
215	0xbd2b10f1	-0.041764203
216	0xbc46728e	-0.012112273
217	0x3ae58d5f	0.0017513445
218	0x3bde9a94	0.0067933295
219	0xbd2973fd	-0.04137038
220	0x3c7cd583	0.015431765
221	0xbd1303d8	-0.035892338
222	0xbc32d0fe	-0.010914085
223	0x3ce9881d	0.028507287
224	0xbcef42c8	-0.029206648
225	0xbcf22518	-0.029558703
226	0xbbd115c8	-0.0063807704
227	0xbced3b60	-0.028958976
228	0xbcb3c1e2	-0.021943036
229	0x3d0f9e7d	0.035063256
230	0xbc4fc5ca	-0.012681434
231	0xbd250fa6	-0.040298127
232	0x3d1fcb70	0.039012372
233	0xbce22e74	-0.027610041
234	0x3c1a5c00	0.009421349
235	0xb9cf947d	-0.0003959275
236	0xbb818918	-0.0039531104
237	0xbca49d0a	-0.020094413
238	0x3d33f8d6	0.04393848
239	0xbca5ad33	-0.02022419
240	0xbaa7ea92	-0.0012810996
241	0x3d20e2bd	0.039278734
242	0xbc9715fd	-0.018443102
243	0xbce113e0	-0.027475297
244	0x3cc9b1f6	0.024620991
245	0x3b5c919a	0.0033656121
246	0xbca1e43a	-0.019762147
247	0x3cf4cff9	0.029884325
248	0xbc2ed93f	-0.010671913
249	0xbad145e7	-0.0015966267
250	0x3c88a54b	0.01668038
251	0xbd0672f9	-0.03282449
252	0xbd134308	-0.035952598
253	0x3ceb996b	0.028759679
254	0x3be06655	0.0068481364
255	0xbbaa6982	-0.005200566

gen.conv_transpose1.conv.bias f4 [64]
0	0xbcd20289	-0.025635974
1	0x3af67259	0.0018802389
2	0x3b5a8921	0.0033345895
3	0xbd0ab071	-0.033859674
4	0x3d1bc1c4	0.038026586
5	0xbd120bdd	-0.035655845
6	0x3caa63c9	0.020799534
7	0xbc837c77	-0.01605056
8	0x3c216a32	0.009851979
9	0x3a4cd1a5	0.0007813222
10	0x3b2ee86c	0.0026688827
11	0xbd05e3aa	-0.03268782
12	0xb9f1970b	-0.00046079638
13	0xbc7dfc06	-0.015501982
14	0x397e8dae	0.00024276107
15	0x3c9c2261	0.019059362
16	0xbc806a91	-0.015675815
17	0x3b4a937a	0.0030910657
18	0x3ca99497	0.020700736
19	0x3d02b213	0.031908106
20	0x3cd6efeb	0.026237449
21	0x3d1bbe08	0.038023025
22	0x3bf203c8	0.0073857047
23	0x3d220f3f	0.03956532
24	0x3cdcbb10	0.026944667
25	0xbc86b28c	-0.01644256
26	0x3c76e6b6	0.015069654
27	0xbc3f416c	-0.011673313
28	0xbcc989b1	-0.02460179
29	0xbd2a5bb3	-0.041591357
30	0xbcd95b5e	-0.026532825
31	0x3c43089a	0.011903906
32	0x3d0ba243	0.03409029
33	0xbc8be86c	-0.0170786
34	0x3c907e6b	0.017638406
35	0x3d0b32cc	0.03398399
36	0xbc72b88b	-0.014814506
37	0x3d28cdd2	0.04121191
38	0x3b8afe1d	0.0042417184
39	0x3cc4024d	0.023926878
40	0xbd22c615	-0.039739687
41	0x3cb1a871	0.021686764
42	0x3ced2c15	0.028951684
43	0xbce06a93	-0.027394569
44	0xba9c9dd1	-0.0011948888
45	0x3d179fde	0.037017696
46	0xbd01827c	-0.03161858
47	0x3c274897	0.010210178
48	0x3cfd7831	0.0309411
49	0xbb5a44df	-0.003330521
50	0x3c62cf01	0.013843299
51	0x3ca4b664	0.020106502
52	0x3c6049c7	0.013689465
53	0x3b83e118	0.004024636
54	0xbb623285	-0.0034514975
55	0x3d17517c	0.036942944
56	0xbca64bcd	-0.020299817
57	0xbbd79d00	-0.006579995
58	0x3bc2ffa3	0.0059508844
59	0xbcc6e953	-0.02428118
60	0xbcfea36d	-0.031083787
61	0x3d271e4f	0.04080039
62	0x3c17c8fe	0.009264229
63	0x3c4f6640	0.012658656

gen.conv_transpose1.norm.weight f4 [64]
0	0x3f809b40	1.0047379
1	0x3f7fdb9a	0.9994446
2	0x3f7f40af	0.99708074
3	0x3f8096dc	1.0046039
4	0x3f80462d	1.0021416
5	0x3f810675	1.0080096
6	0x3f8110fa	1.0083306
7	0x3f7fca99	0.99918514
8	0x3f809aaa	1.00472
9	0x3f800258	1.0000715
10	0x3f8105fe	1.0079954
11	0x3f80142a	1.0006154
12	0x3f80bf8c	1.0058455
13	0x3f806fb5	1.003409
14	0x3f803dea	1.0018895
15	0x3f80e831	1.0070859
16	0x3f800b50	1.0003452
17	0x3f804795	1.0021845
18	0x3f8028cd	1.0012451
19	0x3f8034ef	1.0016154
20	0x3f80a216	1.0049465
21	0x3f800e47	1.0004357
22	0x3f7efa07	0.9960026
23	0x3f80a30d	1.0049759
24	0x3f800853	1.000254
25	0x3f802b53	1.0013222
26	0x3f7f8b30	0.9982176
27	0x3f80920e	1.0044572
28	0x3f8001ae	1.0000513
29	0x3f803b30	1.0018063
30	0x3f8008a7	1.000264
31	0x3f80a637	1.0050725
32	0x3f805259	1.002513
33	0x3f7f9c27	0.99847645
34	0x3f7f7f87	0.99803966
35	0x3f806442	1.0030596
36	0x3f80b544	1.0055318
37	0x3f7fe6b3	0.99961394
38	0x3f7fefe0	0.99975395
39	0x3f807ebb	1.0038675
40	0x3f80737c	1.0035243
41	0x3f802202	1.0010378
42	0x3f8052cf	1.0025271
43	0x3f8026fc	1.0011897
44	0x3f80388d	1.0017258
45	0x3f7f9aac	0.99845386
46	0x3f80681e	1.0031774
47	0x3f8024b9	1.0011207
48	0x3f8023dc	1.0010943
49	0x3f80137f	1.000595
50	0x3f7fd566	0.99934995
51	0x3f8037c5	1.001702
52	0x3f7faf5d	0.9987696
53	0x3f807629	1.003606
54	0x3f7fe427	0.9995751
55	0x3f8060bd	1.0029522
56	0x3f804704	1.0021672
57	0x3f7fec9c	0.9997041
58	0x3f801e55	1.0009257
59	0x3f8092f2	1.0044844
60	0x3f8001b3	1.0000519
61	0x3f808156	1.003947
62	0x3f802922	1.0012553
63	0x3f80916d	1.004438

gen.conv_transpose1.norm.bias f4 [64]
0	0x3a584f58	0.0008251569
1	0xba53fd4f	-0.0008086757
2	0xbb89a551	-0.0042006155
3	0xba640dcb	-0.0008699565
4	0x3b839105	0.0040150904
5	0x3bc59e18	0.006030809
6	0x3bff63dc	0.0077938866
7	0xba83b92f	-0.0010049696
8	0xba7fe235	-0.00097611855
9	0xbacf6bec	-0.001582501
10	0x3c1b1b36	0.009466937
11	0x3a93d1b5	0.0011277708
12	0x3bd47990	0.006484218
13	0x3b3260bb	0.00272183
14	0x3b0405e4	0.0020145113
15	0x3bb7f614	0.0056140516
16	0xbaeb381e	-0.0017945801
17	0xbb8039b0	-0.003913127
18	0xbac6e3a2	-0.0015174041
19	0xbb0a299d	-0.0021081932
20	0x3bd1f88d	0.0064078034
21	0x3a60381e	0.0008553284
22	0xbb85d62f	-0.0040843706
23	0x3bed039b	0.007233096
24	0x3a33d919	0.0006860658
25	0xbb77b42f	-0.0037796607
26	0xbb8717a5	-0.0041226917
27	0x3be23c9f	0.0069041993
28	0x398eaad2	0.00027211622
29	0xba2bb517	-0.0006550117
30	0x3b0e115b	0.0021677825
31	0x3b734ace	0.0037123444
32	0x3bdb2693	0.006687948
33	0xbaf55d07	-0.0018719741
34	0xbb8ef10a	-0.00436223
35	0x3b5e6378	0.00339338
36	0x3b151fb7	0.00227545
37	0x3a842678	0.0010082265
38	0xbad49342	-0.0016218203
39	0x3b3ac01e	0.0028495858
40	0x3ba77399	0.005110216
41	0x3a24a49c	0.0006280632
42	0xbb6025e3	-0.003420227
43	0x3a1a6799	0.0005890071
44	0xb8bbc517	-8.953566e-05
45	0x3bb11d14	0.0054050777
46	0xbbadc52f	-0.005303047
47	0x3aa26c6b	0.001239193
48	0xba4a8ccf	-0.00077266706
49	0xba7dd6a1	-0.0009683166
50	0xbb0179bb	-0.0019756395
51	0xb97c44af	-0.0002405818
52	0xbbc5337c	-0.0060181003
53	0xba3ac319	-0.0007124409
54	0x38185c4f	3.6325593e-05
55	0x3ac4cb35	0.0015014174
56	0xb995d0fc	-0.000285752
57	0xbb805025	-0.003915804
58	0x3b8243fd	0.00397539
59	0x3bfcead8	0.0077184252
60	0xbb3e244d	-0.0029013336
61	0x3b4f5045	0.0031633538
62	0xb9113428	-0.00013847707
63	0x3ba582d7	0.0050509977

gen.conv_transpose1.norm.running_mean f4 [64]
0	0xbdbcc39f	-0.09216999
1	0x3dec758c	0.11545858
2	0x3d89dcdf	0.06731581
3	0xbd8f6590	-0.070017934
4	0x3e45bc13	0.19310026
5	0xbe0f1df3	-0.13976268
6	0xbe651efc	-0.22375101
7	0xbd08dcd7	-0.033413734
8	0x3da0b46c	0.07846913
9	0xbb1dbbc1	-0.002406821
10	0x3c812b47	0.015767707
11	0x3daf4fba	0.085601285
12	0xbe4300b2	-0.19043234
13	0x3c0adacd	0.008475018
14	0xbcc6e1e6	-0.024277639
15	0xbe086aa6	-0.13321933
16	0x3d06be6a	0.032896437
17	0x3db1fd82	0.08690931
18	0x3e13cad8	0.14432847
19	0x3ddd3ffe	0.10803221
20	0xbd107eac	-0.035277054
21	0xbda05ccc	-0.078301996
22	0x3e32a6d7	0.17446457
23	0xbe0ae724	-0.13564736
24	0x3b46d97a	0.0030342028
25	0xbd87fb69	-0.066397496
26	0xbd659883	-0.05605365
27	0xbc383e40	-0.01124531
28	0xbdd2aeaa	-0.10287221
29	0xbe1025ca	-0.14076915
30	0xbd620246	-0.05517795
31	0x3e318c64	0.17338711
32	0x3e2fa4ae	0.17152664
33	0x3df58ec5	0.11990122
34	0xbceb26e5	-0.02870507
35	0x3d9dd9c3	0.077075504
36	0x3da22af1	0.07918347
37	0xbbb7dac5	-0.005610796
38	0x3dd99d68	0.10625726
39	0xbd4f1491	-0.050556723
40	0xbe5ae9d1	-0.21378256
41	0xbdd5f0f4	-0.10446349
42	0x3e71d410	0.23616052
43	0x3cc70da5	0.024298498
44	0xbcc9c806	-0.024631511
45	0x3e19f3b0	0.15034366
46	0x3e1fc56f	0.15602659
47	0x3d90299f	0.070391886
48	0x3d052473	0.032505464
49	0xbe11b8e7	-0.14230691
50	0x3df013c7	0.11722522
51	0x3b512227	0.0031911226
52	0xbc581dc8	-0.013190694
53	0x3e42bf9c	0.19018406
54	0xbd4aee92	-0.049543925
55	0xbdb1a484	-0.08673957
56	0x3c2d2c14	0.010569591
57	0x3db63fac	0.08898863
58	0x3e58b504	0.21162802
59	0x3db7c3b1	0.08972872
60	0x3d7c2723	0.06156076
61	0x3e0f6c37	0.14006124
62	0xbd9d387a	-0.07676788
63	0xbd9a16be	-0.07523869

gen.conv_transpose1.norm.running_var f4 [64]
0	0x3dd29b99	0.10283584
1	0x3dfa433c	0.12219855
2	0x3dc38f9e	0.09548877
3	0x3dc5a961	0.09651447
4	0x3dd8562e	0.105633125
5	0x3e0570a4	0.1303125
6	0x3dfb3577	0.12266057
7	0x3db7a32c	0.089666694
8	0x3de2eabc	0.11079928
9	0x3dce9831	0.10087622
10	0x3dd95971	0.10612763
11	0x3dbe354a	0.09287508
12	0x3e03838a	0.12843147
13	0x3e04eeca	0.12981716
14	0x3e0eb06b	0.13934486
15	0x3dce5df6	0.100765154
16	0x3daf9ddd	0.08575032
17	0x3dfce4b0	0.12348306
18	0x3da763a5	0.081733026
19	0x3dcee4db	0.101022445
20	0x3dc1dc37	0.09465831
21	0x3db0b028	0.08627349
22	0x3dd6de42	0.10491611
23	0x3dc546ef	0.0963267
24	0x3dad2a2e	0.08455311
25	0x3de5aacd	0.11214218
26	0x3df4cc8c	0.11953077
27	0x3dcea796	0.10090558
28	0x3dd889bc	0.10573146
29	0x3db2fb3c	0.087393254
30	0x3dc64f62	0.0968311
31	0x3e183e5d	0.1486754
32	0x3dddf3a0	0.108374834
33	0x3dc23fb1	0.094848044
34	0x3dac8c72	0.08425225
35	0x3ddda9de	0.10823415
36	0x3df1ee9b	0.118130885
37	0x3ddae828	0.106888115
38	0x3db0a1eb	0.086246334
39	0x3dc9f16e	0.09860502
40	0x3de6af96	0.11263959
41	0x3dc27d14	0.09496513
42	0x3de5bfa7	0.112181954
43	0x3daeed67	0.08541375
44	0x3dd5d48c	0.10440931
45	0x3de9ecb1	0.114220984
46	0x3de4fd96	0.1118118
47	0x3dbd1d70	0.092341304
48	0x3de4c810	0.111709714
49	0x3dcd6f5a	0.10031004
50	0x3da7f910	0.08201802
51	0x3e0c31c8	0.13690865
52	0x3dd1cf32	0.102445975
53	0x3de0966c	0.10966191
54	0x3dd8df03	0.10589411
55	0x3dc999b7	0.09843772
56	0x3db36cb0	0.08760965
57	0x3dd316de	0.10307096
58	0x3e223931	0.1584213
59	0x3df4604e	0.11932431
60	0x3dc018be	0.09379719
61	0x3de2dab1	0.11076868
62	0x3db0e058	0.0863654
63	0x3dd2dc77	0.102959566

gen.conv_transpose2.weight f4 [64, 1, 4, 4]
0	0x3e594f5b	0.21221678
1	0xbe41d685	-0.18929489
2	0xbd01f3ca	-0.031726636
3	0x3e6e727a	0.23285857
4	0xbe124275	-0.14283164
5	0xbcfabc8d	-0.030607486
6	0xbd9f9199	-0.077914424
7	0xbe16f732	-0.14742735
8	0x3d3ed068	0.04658547
9	0xbdc4fc92	-0.096184865
10	0xbd4ba8ef	-0.049721655
11	0x3e434779	0.19070233
12	0xbd5b0cd7	-0.053479042
13	0xbcd0b56c	-0.025477134
14	0x3e76117d	0.24030109
15	0xbe762569	-0.24037708
16	0x3e266a52	0.16251495
17	0xbe315e06	-0.17321023
18	0x3d5ce7ff	0.053932186
19	0x3e0178f7	0.126438
20	0xbdd37534	-0.10325089
21	0x3e7936b7	0.24337278
22	0x3e71eb10	0.23624825
23	0xbe375053	-0.17901735
24	0x3e6b6e76	0.22991356
25	0xbe2a3bbe	-0.16624352
26	0x3d85597f	0.06511211
27	0x3e0fe214	0.14051086
28	0xbe1f73b5	-0.15571482
29	0xbe22a9fc	-0.15885156
30	0x3d82e1a3	0.06390693
31	0xbe0673d1	-0.13130118
32	0x3e5d1430	0.21589732
33	0x3ce34b15	0.027745763
34	0x3e0d4194	0.13794547
35	0x3c73a7c0	0.014871538
36	0x3dd34721	0.10316301
37	0xbe2346ab	-0.15944926
38	0xbd18581d	-0.037193406
39	0xbe6c2777	-0.2306193
40	0xbd1b7c12	-0.03796012
41	0xbe41a05a	-0.18908826
42	0x3e47a7a5	0.19497545
43	0x3d41ff4e	0.04736262
44	0x3d77cc82	0.06049777
45	0x3e04e7ce	0.12979051
46	0x3dbf9521	0.09354616
47	0xb9c3cdca	-0.00037346623
48	0x3dd17fe6	0.10229473
49	0x3df101f7	0.11767953
50	0xbe1b55fc	-0.15169519
51	0xbd1fc1d2	-0.0390032
52	0x3e4b1c98	0.19835126
53	0xba660a44	-0.00087753334
54	0xbe02296e	-0.12711117
55	0x3e5162f5	0.20447905
56	0x3d1dfece	0.03857308
57	0x3da86f0b	0.08224305
58	0xbd9bf538	-0.07615131
59	0xbc95b9e2	-0.018277112
60	0x3e344313	0.17603712
61	0x3d7d3c66	0.06182518
62	0x3e57ba42	0.21067145
63	0xbe227ec3	-0.15868668
64	0xbda04666	-0.078259274
65	0x3d838574	0.064219385
66	0xbdf65e21	-0.120296724
67	0xbd7a1e6b	-0.061064165
68	0xbd8faaf8	-0.070150316
69	0xbe06d90e	-0.13168737
70	0xbdd2e04e	-0.10296689
71	0xbdcff683	-0.1015444
72	0x3ce00493	0.027345931
73	0x3e7f32b6	0.24921688
74	0xbcc95705	-0.024577627
75	0xbbc5ce44	-0.0060365517
76	0xbdf7a9d7	-0.12092941
77	0x3e2bdb45	0.16782863
78	0xbb97638b	-0.0046200207
79	0x3e3a95cf	0.1822121
80	0xbe7b457f	-0.2453823
81	0xbe7e71e9	-0.24848141
82	0xbe0421c4	-0.12903506
83	0xbe14a7af	-0.14517091
84	0xbda7929c	-0.081822604
85	0xbe395767	-0.18099748
86	0xbd0ae603	-0.033910763
87	0xbe58cc62	-0.21171716
88	0x3cd756d9	0.02628653
89	0x3da68ed3	0.0813271
90	0xbdf8e77c	-0.12153527
91	0xbe3d2fa3	-0.18475203
92	0x3e6c4476	0.23072991
93	0xbe0fb281	-0.14032938
94	0xbda204b2	-0.07911052
95	0xbe5b82c4	-0.21436602
96	0xbe562e63	-0.20916133
97	0xbe64c89a	-0.22342148
98	0xbd75e71b	-0.060034852
99	0xbc03eeb7	-0.0080525195
100	0x3d09651d	0.033543695
101	0x3d7a595f	0.061120387
102	0xbe565ac3	-0.2093306
103	0x3d8f14bc	0.06986377
104	0xbe019244	-0.12653452
105	0xbe56cc97	-0.20976482
106	0x3c6105c0	0.013734281
107	0x3e0774a8	0.13228095
108	0xbe29006e	-0.1650407
109	0xbe458e12	-0.19292477
110	0x3e4e3d22	0.20140508
111	0xbe0db735	-0.13839419
112	0x3d690ef9	0.056899045
113	0xbe66bf7a	-0.2253398
114	0xbde9c25c	-0.11414024
115	0xbe456343	-0.19276147
116	0x3e5d6f78	0.21624553
117	0xbdc31acc	-0.095265955
118	0x3e48befd	0.19604106
119	0xbd8e36cf	-0.06944048
120	0x3d543933	0.051812362
121	0xbddbb7f6	-0.10728447
122	0xbe2c83ff	-0.16847228
123	0x3e27db79	0.16392316
124	0x3e19f0a2	0.150332
125	0xbde41a07	-0.11137777
126	0x3dc8f36e	0.098120555
127	0x3e149b2e	0.14512321
128	0x3dc776a8	0.09739429
129	0xbe596400	-0.21229553
130	0x3c2edf25	0.010673319
131	0xbad5d475	-0.0016313927
132	0x3dbb4fa0	0.09146047
133	0x3e27f68d	0.16402645
134	0x3e59f06f	0.21283124
135	0x3e28055d	0.16408296
136	0xbd96a806	-0.07356267
137	0x3e551cad	0.2081172
138	0xbe0664d5	-0.13124402
139	0x3e7aa7ee	0.24478123
140	0x3e6d4623	0.23171286
141	0x3e48941a	0.19587746
142	0x3df0ca43	0.11757328
143	0xbe11017e	-0.14160725
144	0x3e3e294a	0.18570438
145	0x3e286b00	0.16447067
146	0xbdb71079	-0.08938689
147	0xbe358059	-0.17724742
148	0x3e6d7294	0.2318824
149	0x3e70139d	0.23444982
150	0x3c933101	0.017967703
151	0x3dd5f8e9	0.104478665
152	0x3e028bc2	0.12748626
153	0xbe03369c	-0.128138
154	0xbe4c0b97	-0.19926296
155	0xbe0cc441	-0.1374674
156	0xbdfbc5ea	-0.122936085
157	0xbe4d71f5	-0.20063002
158	0x3e687962	0.22702554
159	0x3e4f3705	0.20235832
160	0xbe74d88f	-0.23910736
161	0xbda81f9f	-0.08209156
162	0x3b58d5a5	0.0033086326
163	0x3dae57dd	0.08512852
164	0xbe4268bc	-0.18985265
165	0x3e31041d	0.17286725
166	0xbe552317	-0.20814167
167	0xbe74607a	-0.23864928
168	0x3cc9ba4b	0.024624964
169	0x3d23e373	0.040011834
170	0xbd8ce819	-0.068802066
171	0x3ce8a451	0.028398665
172	0xbdfc8ece	-0.12331925
173	0xbe0d2f41	-0.13787557
174	0x3e0d9f55	0.13830312
175	0xbd1f490d	-0.038888026
176	0xbe7180ca	-0.23584285
177	0x3dc64dea	0.0968283
178	0xbe6883f0	-0.2270658
179	0xbdf11b21	-0.117727526
180	0xbe10476a	-0.14089742
181	0xbe0c6b35	-0.13712771
182	0xbe0f3ed6	-0.13988814
183	0xbdfd7d28	-0.12377387
184	0x3d197bc8	0.037471563
185	0x3e7f8cfc	0.24956125
186	0xbdb68a4e	-0.08913098
187	0xbe4dd92d	-0.20102377
188	0xbd1b1e84	-0.0378709
189	0x3e7261ea	0.23670164
190	0x3d185430	0.037189662
191	0xbe1f6ccf	-0.15568851
192	0xbdb0fe80	-0.08642292
193	0xbb964264	-0.004585551
194	0x3b8051fe	0.003916024
195	0xbe36f8e4	-0.17868382
196	0xbe5a1e6f	-0.21300672
197	0x3cf545c6	0.029940497
198	0xbe2827bf	-0.16421412
199	0xbe41273e	-0.18862626
200	0xbddb1cc7	-0.10698848
201	0x3d90c68f	0.07069122
202	0xbc67c5da	-0.014146293
203	0x3e5832e4	0.21113163
204	0x3a9fe4ee	0.0012198964
205	0xbe1724f6	-0.14760193
206	0xbc624c5e	-0.013812153
207	0x3e0ab4d7	0.13545547
208	0xbe46b0e9	-0.19403423
209	0xbe2e0c67	-0.16996919
210	0xbe59ef1d	-0.2128262
211	0x3d44b28e	0.048021846
212	0x3e058df1	0.13042428
213	0x3d62881f	0.055305596
214	0x3e098553	0.13429765
215	0x3e2b8dfa	0.16753379
216	0x3d454f0d	0.04817109
217	0x3e10bf3a	0.14135447
218	0x3e32f755	0.17477162
219	0xbd7d6fea	-0.061874308
220	0xbdf8c9ba	-0.12147851
221	0xbd68a3c0	-0.05679679
222	0x3c5ccfa3	0.013477239
223	0x3d9dd2e8	0.07706243
224	0xbd6ba3c1	-0.057529215
225	0x3e33da04	0.17563635
226	0x3cc47c9f	0.023985205
227	0x3e106501	0.1410103
228	0xbe3505d2	-0.17678002
229	0x3d716905	0.058938045
230	0x3c17ad9f	0.009257703
231	0x3e47049a	0.19435349
232	0xbd288621	-0.04114354
233	0xbd07703b	-0.033066016
234	0xbe7ac8b4	-0.24490625
235	0xbe7692f7	-0.240795
236	0x3c6976cb	0.014249514
237	0xbe14f11b	-0.145451
238	0x3e6f354d	0.23360176
239	0xbb3a681a	-0.0028443397
240	0xbdd146b5	-0.102185644
241	0xbe2c6d64	-0.16838604
242	0xbe5f7673	-0.21822529
243	0x3e0c4420	0.13697863
244	0xbe3fd6c4	-0.1873427
245	0x3e185662	0.14876702
246	0x3e559ec2	0.20861343
247	0xbe047232	-0.12934187
248	0xbe7589a6	-0.2397829
249	0xbe6f8142	-0.23389152
250	0x3e2b6101	0.16736223
251	0x3e3c4089	0.18383993
252	0x3b159014	0.0022821473
253	0x3ddb4375	0.10706226
254	0x3e20301c	0.15643352
255	0x3d4cd296	0.050005518
